results/robot_sumo_v2/RobotAgent/RobotAgent-0.pt (torch, 580254 bytes, 20 tensors)

network_body.observation_encoder.processors.0.normalizer.running_mean f4 [18]
0	0x00000000	0.0
1	0x00000000	0.0
2	0x00000000	0.0
3	0x00000000	0.0
4	0x00000000	0.0
5	0x00000000	0.0
6	0x00000000	0.0
7	0x00000000	0.0
8	0x00000000	0.0
9	0x00000000	0.0
10	0x00000000	0.0
11	0x00000000	0.0
12	0x00000000	0.0
13	0x00000000	0.0
14	0x00000000	0.0
15	0x00000000	0.0
16	0x00000000	0.0
17	0x00000000	0.0

network_body.observation_encoder.processors.0.normalizer.running_variance f4 [18]
0	0x3f800000	1.0
1	0x3f800000	1.0
2	0x3f800000	1.0
3	0x3f800000	1.0
4	0x3f800000	1.0
5	0x3f800000	1.0
6	0x3f800000	1.0
7	0x3f800000	1.0
8	0x3f800000	1.0
9	0x3f800000	1.0
10	0x3f800000	1.0
11	0x3f800000	1.0
12	0x3f800000	1.0
13	0x3f800000	1.0
14	0x3f800000	1.0
15	0x3f800000	1.0
16	0x3f800000	1.0
17	0x3f800000	1.0

network_body.processors.0.normalizer.running_mean f4 [18]
0	0x00000000	0.0
1	0x00000000	0.0
2	0x00000000	0.0
3	0x00000000	0.0
4	0x00000000	0.0
5	0x00000000	0.0
6	0x00000000	0.0
7	0x00000000	0.0
8	0x00000000	0.0
9	0x00000000	0.0
10	0x00000000	0.0
11	0x00000000	0.0
12	0x00000000	0.0
13	0x00000000	0.0
14	0x00000000	0.0
15	0x00000000	0.0
16	0x00000000	0.0
17	0x00000000	0.0

network_body.processors.0.normalizer.running_variance f4 [18]
0	0x3f800000	1.0
1	0x3f800000	1.0
2	0x3f800000	1.0
3	0x3f800000	1.0
4	0x3f800000	1.0
5	0x3f800000	1.0
6	0x3f800000	1.0
7	0x3f800000	1.0
8	0x3f800000	1.0
9	0x3f800000	1.0
10	0x3f800000	1.0
11	0x3f800000	1.0
12	0x3f800000	1.0
13	0x3f800000	1.0
14	0x3f800000	1.0
15	0x3f800000	1.0
16	0x3f800000	1.0
17	0x3f800000	1.0

network_body._body_endoder.seq_layers.0.weight f4 [256, 18]
0	0x3dedc579	0.116099305
1	0xbd95411e	-0.07287811
2	0x3e00ad7a	0.12566176
3	0xbc997f12	-0.01873735
4	0xbcf1a988	-0.029499784
5	0xbe0c53fd	-0.13703914
6	0x3d6002cd	0.05469017
7	0xbebf0774	-0.37310374
8	0x3ca23938	0.019802675
9	0xbd820a43	-0.063496135
10	0x3e7879fc	0.24265283
11	0xbeb29be8	-0.34884572
12	0x3e665146	0.22491941
13	0x3e099ecb	0.13439481
14	0x3e158bbf	0.1460409
15	0xbecf7820	-0.40521336
16	0x3e005804	0.12533575
17	0xbe459081	-0.19293405
18	0x3d8133e3	0.06308725
19	0x3d9c8a6e	0.07643591
20	0xbe290777	-0.16506754
21	0x3ea24fd9	0.31701544
22	0xbd41fc5f	-0.04735982
23	0xbd275640	-0.04085374
24	0xbcb95dad	-0.022627676
25	0x3e1297f9	0.14315785
26	0x3e4fbb2e	0.20286247
27	0xbf31c5f7	-0.69442695
28	0x3e9a1234	0.30092013
29	0xbd1d35f9	-0.03838155
30	0xbe8ffa58	-0.28120685
31	0xbdd59499	-0.104287334
32	0x3e6283b6	0.22120556
33	0xbe8c955d	-0.27457705
34	0xbda0f5db	-0.07859393
35	0xbe055e58	-0.1302427
36	0xbeb4223d	-0.35182372
37	0xbcdf8d05	-0.027288923
38	0xbe683ecf	-0.2268021
39	0x3d46c594	0.04852827
40	0x3d2dea67	0.04245987
41	0x3d6e331b	0.058154207
42	0xbc4f42a2	-0.012650164
43	0x3c3bae77	0.01145517
44	0xbedc6fd1	-0.4305406
45	0x3c898560	0.016787231
46	0xbde87603	-0.11350634
47	0x3df22216	0.118229076
48	0x3d80a25f	0.0628097
49	0xbda665e4	-0.08124903
50	0x3e884bde	0.26620382
51	0x3ecc304e	0.39880604
52	0x3e2a93b8	0.16657913
53	0x3ea1c9f9	0.31599405
54	0xbd6ad6f7	-0.057333913
55	0xbc2042c3	-0.009781542
56	0x3e80eb23	0.25179395
57	0x3e4dd00f	0.200989
58	0xbe2409f7	-0.16019426
59	0x3dc9121b	0.098179065
60	0xbe16facb	-0.14744107
61	0x3e8c9feb	0.27465758
62	0x3e1a547c	0.1507129
63	0x3e642d92	0.22283009
64	0xbdffeca8	-0.124963105
65	0xbe1fa4b0	-0.15590167
66	0x3e34265c	0.17592758
67	0xbd6c8beb	-0.057750624
68	0x3eaff1ea	0.34364253
69	0x3dfbac7c	0.12288758
70	0xbe5a0b77	-0.21293436
71	0xbe737846	-0.2377635
72	0xbebc4084	-0.36767972
73	0xbdbbe573	-0.09174623
74	0x3e19e991	0.15030505
75	0xbdefb563	-0.11704519
76	0x3e9714a8	0.29507947
77	0xbbeebd69	-0.007285763
78	0xbc967be0	-0.018369615
79	0x3e4e2eec	0.20135087
80	0x3e1783b0	0.14796329
81	0x3e7a31a5	0.24433
82	0xbda5a54a	-0.08088167
83	0x3e1a5e9f	0.15075158
84	0xbebb72fc	-0.36611164
85	0xbeb1ed34	-0.34751284
86	0x3de915dd	0.11381123
87	0x3e633d0f	0.22191261
88	0x3e3c0bcf	0.1836388
89	0xbdbf7ad2	-0.09349598
90	0xbb8fddb9	-0.004390445
91	0xbe954562	-0.29154497
92	0xbf0da01c	-0.5532243
93	0x3d6f969b	0.058493238
94	0xbe1d1ba9	-0.15342583
95	0x3dcd1e92	0.100155964
96	0x3e56da74	0.20981771
97	0x3e7aa6d9	0.2447771
98	0x3db16375	0.08661548
99	0xbe5434b0	-0.20723224
100	0xbe3766ce	-0.1791031
101	0x3e68a877	0.22720514
102	0xbe9bf45f	-0.30459878
103	0x3da9bbc8	0.082877696
104	0x3eb7bf5b	0.3588818
105	0x3dbea15d	0.09308121
106	0x3e52f21f	0.20600174
107	0xbece6418	-0.4031074
108	0x3e79df7f	0.24401663
109	0x3c2e35bf	0.010632931
110	0xbe7382df	-0.23780392
111	0x3d5c5e42	0.05380083
112	0x3e1d36a9	0.15352882
113	0x3e96dfd9	0.29467657
114	0xbeac732b	-0.33681616
115	0x3da9f421	0.08298517
116	0xbdb43c7f	-0.08800601
117	0x3d264e8d	0.040602256
118	0xbdaccec0	-0.08437872
119	0x3d0cf30b	0.03441147
120	0xbca8c4f6	-0.02060173
121	0xbdcd18b2	-0.10014476
122	0xbe7e57b6	-0.24838147
123	0xbe8826d0	-0.26592112
124	0x3e7b84f8	0.24562442
125	0xbdcaa74d	-0.09895191
126	0x3df69c89	0.120415755
127	0x3e4dfd0d	0.20116062
128	0x3ea4f8b0	0.32220984
129	0x3e3c3d3d	0.18382736
130	0x3d359d7d	0.044339646
131	0xbdbec091	-0.09314073
132	0xbd826548	-0.06366974
133	0xbeb495e8	-0.3527062
134	0x3f0dca49	0.5538679
135	0x3e370607	0.17873393
136	0x3e5276dc	0.20553154
137	0x3e31b4f2	0.17354181
138	0x3eba9192	0.36439186
139	0x3e5a09da	0.2129282
140	0x3e38b1ce	0.18036577
141	0x3ecdf4d3	0.4022585
142	0xbe246bf8	-0.16056812
143	0xbeb4530e	-0.35219616
144	0xbdeddd1e	-0.116144404
145	0xbd7754f7	-0.060383763
146	0xbd3c66f1	-0.04599661
147	0xbcc56eea	-0.02410074
148	0x3e95eeb7	0.29283687
149	0xbc53f423	-0.012936625
150	0x3dd8f1ae	0.10592972
151	0xbea618ab	-0.32440695
152	0x3dda1a7e	0.10649584
153	0x3df0cc92	0.11757769
154	0xbe828477	-0.25491688
155	0xbee31770	-0.4435382
156	0xbe10b66a	-0.14132085
157	0xbe781f0b	-0.24230592
158	0x3dab7d61	0.083735235
159	0x3d8e9214	0.06961456
160	0xbe319eb9	-0.17345704
161	0x3dcafe02	0.099117294
162	0x3c808a10	0.015690833
163	0x3ed0beaf	0.4077048
164	0xbe212987	-0.15738498
165	0x3e843977	0.25825092
166	0x3d847dbb	0.06469294
167	0x3e4af89f	0.19821404
168	0xbdc8aa2b	-0.09798082
169	0xbd2f7183	-0.042832863
170	0x3ee733ae	0.45156616
171	0xbd17c046	-0.0370486
172	0xbeffe071	-0.49975923
173	0x3f1aa449	0.6040693
174	0xbda14b8e	-0.07875739
175	0x3e5bd9aa	0.21469751
176	0xbb9705e2	-0.0046088556
177	0xbea56204	-0.32301342
178	0xbe333de9	-0.17504086
179	0x3e844e41	0.25840953
180	0x3eb97225	0.36219898
181	0xbd0691ca	-0.03285388
182	0xbc49e825	-0.012323414
183	0x3e134ddc	0.1438517
184	0x3e38d189	0.18048681
185	0xbd93b074	-0.0721139
186	0x3d835130	0.0641197
187	0xbe79d841	-0.243989
188	0xbe9fb5c9	-0.3119338
189	0x3e74edfb	0.23918907
190	0xbe5a2e7e	-0.21306798
191	0xbedf4307	-0.43605825
192	0xbd8cb666	-0.06870727
193	0xbe18060b	-0.14846055
194	0xbe7737af	-0.24142335
195	0x3cfe3c66	0.03103466
196	0xbe8c3eb5	-0.27391592
197	0x3cadd4b3	0.021219587
198	0xbebe4ce4	-0.37168038
199	0x3f11a331	0.56889635
200	0x3e2d83f6	0.1694487
201	0xbdd06b89	-0.10176761
202	0xbd90fe63	-0.070797704
203	0x3c81288d	0.015766406
204	0x3dbc39a3	0.09190681
205	0xbe243007	-0.16033946
206	0x3e40a002	0.18811038
207	0xbee78a65	-0.45222774
208	0xbe1d2536	-0.15346226
209	0xbf1ec9c7	-0.6202664
210	0xbd559419	-0.05214319
211	0xbe75f73a	-0.2402009
212	0xbe0c8df5	-0.13726027
213	0x3e0ba9f1	0.13639046
214	0xbe8fc4f4	-0.2807995
215	0x3ed62e19	0.41832045
216	0x3e4aee87	0.19817553
217	0xbdf80952	-0.12111153
218	0x3e8d6db8	0.2762277
219	0xbd5c1558	-0.053731292
220	0x3eb7dac7	0.359091
221	0xbefe75ba	-0.49699193
222	0x3e2b0432	0.16700819
223	0x3dfe2ca1	0.12410856
224	0xbe88e2d3	-0.26735553
225	0x3df9fbbe	0.12206219
226	0x3d699d06	0.057034515
227	0x3eb78b25	0.35848346
228	0x3eb982af	0.36232516
229	0x3e8e2ba5	0.27767673
230	0xbe81d153	-0.25355014
231	0x3dff9521	0.12479616
232	0xbebe3d27	-0.3715603
233	0x3edab74c	0.4271797
234	0x3de4e74a	0.111769274
235	0x3f00205a	0.50049365
236	0x3e4a0815	0.19729646
237	0xbe30945a	-0.17244092
238	0x3e2a07c5	0.16604526
239	0x3e6b985f	0.23007344
240	0x3e51dc1b	0.2049412
241	0xbe49172b	-0.19637744
242	0xbdbe5769	-0.09294016
243	0x3dd68559	0.10474653
244	0x3dd3b287	0.10336786
245	0xbd2971d1	-0.04136831
246	0x3e67499f	0.22586678
247	0x3eb9ccbe	0.36289018
248	0x3c8e32bc	0.017358176
249	0x3e876a6b	0.26448378
250	0x3e4a4121	0.19751407
251	0x3efaf74a	0.49016792
252	0xbe39d0c4	-0.18146044
253	0x3dc38427	0.095466904
254	0xbeae650c	-0.34061468
255	0x3f00a948	0.502583

network_body._body_endoder.seq_layers.0.bias f4 [256]
0	0x00000000	0.0
1	0x00000000	0.0
2	0x00000000	0.0
3	0x00000000	0.0
4	0x00000000	0.0
5	0x00000000	0.0
6	0x00000000	0.0
7	0x00000000	0.0
8	0x00000000	0.0
9	0x00000000	0.0
10	0x00000000	0.0
11	0x00000000	0.0
12	0x00000000	0.0
13	0x00000000	0.0
14	0x00000000	0.0
15	0x00000000	0.0
16	0x00000000	0.0
17	0x00000000	0.0
18	0x00000000	0.0
19	0x00000000	0.0
20	0x00000000	0.0
21	0x00000000	0.0
22	0x00000000	0.0
23	0x00000000	0.0
24	0x00000000	0.0
25	0x00000000	0.0
26	0x00000000	0.0
27	0x00000000	0.0
28	0x00000000	0.0
29	0x00000000	0.0
30	0x00000000	0.0
31	0x00000000	0.0
32	0x00000000	0.0
33	0x00000000	0.0
34	0x00000000	0.0
35	0x00000000	0.0
36	0x00000000	0.0
37	0x00000000	0.0
38	0x00000000	0.0
39	0x00000000	0.0
40	0x00000000	0.0
41	0x00000000	0.0
42	0x00000000	0.0
43	0x00000000	0.0
44	0x00000000	0.0
45	0x00000000	0.0
46	0x00000000	0.0
47	0x00000000	0.0
48	0x00000000	0.0
49	0x00000000	0.0
50	0x00000000	0.0
51	0x00000000	0.0
52	0x00000000	0.0
53	0x00000000	0.0
54	0x00000000	0.0
55	0x00000000	0.0
56	0x00000000	0.0
57	0x00000000	0.0
58	0x00000000	0.0
59	0x00000000	0.0
60	0x00000000	0.0
61	0x00000000	0.0
62	0x00000000	0.0
63	0x00000000	0.0
64	0x00000000	0.0
65	0x00000000	0.0
66	0x00000000	0.0
67	0x00000000	0.0
68	0x00000000	0.0
69	0x00000000	0.0
70	0x00000000	0.0
71	0x00000000	0.0
72	0x00000000	0.0
73	0x00000000	0.0
74	0x00000000	0.0
75	0x00000000	0.0
76	0x00000000	0.0
77	0x00000000	0.0
78	0x00000000	0.0
79	0x00000000	0.0
80	0x00000000	0.0
81	0x00000000	0.0
82	0x00000000	0.0
83	0x00000000	0.0
84	0x00000000	0.0
85	0x00000000	0.0
86	0x00000000	0.0
87	0x00000000	0.0
88	0x00000000	0.0
89	0x00000000	0.0
90	0x00000000	0.0
91	0x00000000	0.0
92	0x00000000	0.0
93	0x00000000	0.0
94	0x00000000	0.0
95	0x00000000	0.0
96	0x00000000	0.0
97	0x00000000	0.0
98	0x00000000	0.0
99	0x00000000	0.0
100	0x00000000	0.0
101	0x00000000	0.0
102	0x00000000	0.0
103	0x00000000	0.0
104	0x00000000	0.0
105	0x00000000	0.0
106	0x00000000	0.0
107	0x00000000	0.0
108	0x00000000	0.0
109	0x00000000	0.0
110	0x00000000	0.0
111	0x00000000	0.0
112	0x00000000	0.0
113	0x00000000	0.0
114	0x00000000	0.0
115	0x00000000	0.0
116	0x00000000	0.0
117	0x00000000	0.0
118	0x00000000	0.0
119	0x00000000	0.0
120	0x00000000	0.0
121	0x00000000	0.0
122	0x00000000	0.0
123	0x00000000	0.0
124	0x00000000	0.0
125	0x00000000	0.0
126	0x00000000	0.0
127	0x00000000	0.0
128	0x00000000	0.0
129	0x00000000	0.0
130	0x00000000	0.0
131	0x00000000	0.0
132	0x00000000	0.0
133	0x00000000	0.0
134	0x00000000	0.0
135	0x00000000	0.0
136	0x00000000	0.0
137	0x00000000	0.0
138	0x00000000	0.0
139	0x00000000	0.0
140	0x00000000	0.0
141	0x00000000	0.0
142	0x00000000	0.0
143	0x00000000	0.0
144	0x00000000	0.0
145	0x00000000	0.0
146	0x00000000	0.0
147	0x00000000	0.0
148	0x00000000	0.0
149	0x00000000	0.0
150	0x00000000	0.0
151	0x00000000	0.0
152	0x00000000	0.0
153	0x00000000	0.0
154	0x00000000	0.0
155	0x00000000	0.0
156	0x00000000	0.0
157	0x00000000	0.0
158	0x00000000	0.0
159	0x00000000	0.0
160	0x00000000	0.0
161	0x00000000	0.0
162	0x00000000	0.0
163	0x00000000	0.0
164	0x00000000	0.0
165	0x00000000	0.0
166	0x00000000	0.0
167	0x00000000	0.0
168	0x00000000	0.0
169	0x00000000	0.0
170	0x00000000	0.0
171	0x00000000	0.0
172	0x00000000	0.0
173	0x00000000	0.0
174	0x00000000	0.0
175	0x00000000	0.0
176	0x00000000	0.0
177	0x00000000	0.0
178	0x00000000	0.0
179	0x00000000	0.0
180	0x00000000	0.0
181	0x00000000	0.0
182	0x00000000	0.0
183	0x00000000	0.0
184	0x00000000	0.0
185	0x00000000	0.0
186	0x00000000	0.0
187	0x00000000	0.0
188	0x00000000	0.0
189	0x00000000	0.0
190	0x00000000	0.0
191	0x00000000	0.0
192	0x00000000	0.0
193	0x00000000	0.0
194	0x00000000	0.0
195	0x00000000	0.0
196	0x00000000	0.0
197	0x00000000	0.0
198	0x00000000	0.0
199	0x00000000	0.0
200	0x00000000	0.0
201	0x00000000	0.0
202	0x00000000	0.0
203	0x00000000	0.0
204	0x00000000	0.0
205	0x00000000	0.0
206	0x00000000	0.0
207	0x00000000	0.0
208	0x00000000	0.0
209	0x00000000	0.0
210	0x00000000	0.0
211	0x00000000	0.0
212	0x00000000	0.0
213	0x00000000	0.0
214	0x00000000	0.0
215	0x00000000	0.0
216	0x00000000	0.0
217	0x00000000	0.0
218	0x00000000	0.0
219	0x00000000	0.0
220	0x00000000	0.0
221	0x00000000	0.0
222	0x00000000	0.0
223	0x00000000	0.0
224	0x00000000	0.0
225	0x00000000	0.0
226	0x00000000	0.0
227	0x00000000	0.0
228	0x00000000	0.0
229	0x00000000	0.0
230	0x00000000	0.0
231	0x00000000	0.0
232	0x00000000	0.0
233	0x00000000	0.0
234	0x00000000	0.0
235	0x00000000	0.0
236	0x00000000	0.0
237	0x00000000	0.0
238	0x00000000	0.0
239	0x00000000	0.0
240	0x00000000	0.0
241	0x00000000	0.0
242	0x00000000	0.0
243	0x00000000	0.0
244	0x00000000	0.0
245	0x00000000	0.0
246	0x00000000	0.0
247	0x00000000	0.0
248	0x00000000	0.0
249	0x00000000	0.0
250	0x00000000	0.0
251	0x00000000	0.0
252	0x00000000	0.0
253	0x00000000	0.0
254	0x00000000	0.0
255	0x00000000	0.0

network_body._body_endoder.seq_layers.2.weight f4 [256, 256]
0	0x3d5587c9	0.052131448
1	0xbdadfb85	-0.08495239
2	0xbd22897a	-0.03968189
3	0x3d0aa320	0.033846974
4	0x3d787be4	0.060665026
5	0xbd00def8	-0.03146264
6	0x3da7037f	0.08154964
7	0x3cbf2fab	0.02333816
8	0x3d203b82	0.03911925
9	0xbcdc627c	-0.02690243
10	0x3aa8f51d	0.0012890432
11	0x3df9a71f	0.12190079
12	0xbb4c47d4	-0.0031170743
13	0xbd708c81	-0.058727745
14	0x3df50af1	0.119649775
15	0x3d42075c	0.0473703
16	0x3b434018	0.0029792842
17	0xbd4e8f71	-0.050429765
18	0xbceaa7c3	-0.028644448
19	0x3ccff33b	0.025384536
20	0xbd1b3d8d	-0.037900496
21	0x3ddd141f	0.107948534
22	0x3d9b321c	0.07577917
23	0xbd1d26bd	-0.03836702
24	0x3d9d05f7	0.07667153
25	0xbd87933f	-0.06619882
26	0x3c0710ce	0.008243753
27	0xbd853f3f	-0.06506204
28	0xbbcf18ac	-0.00632008
29	0x397a26c3	0.00023856298
30	0xbb11e46e	-0.00222614
31	0xbe3a4f9b	-0.1819443
32	0x3d02234e	0.03177195
33	0x3d739d68	0.059476286
34	0xbdec10f6	-0.115266725
35	0xbd8a6acf	-0.06758653
36	0x3d7ed573	0.06221528
37	0xbd4d82cb	-0.050173562
38	0x3da06df9	0.078334756
39	0xbd0a37b3	-0.033744525
40	0xbd6d4510	-0.05792719
41	0x3cacaae4	0.02107758
42	0xbc0f5ad4	-0.008749682
43	0x3dd5186f	0.10405051
44	0xbd2824ea	-0.04105083
45	0x3d412705	0.047156353
46	0x3c5db8bc	0.013532814
47	0xbdbed6ea	-0.09318335
48	0x3c0a67e4	0.008447621
49	0x3c83636a	0.016038615
50	0x3d2544c3	0.04034878
51	0x3cd21e16	0.025649112
52	0xbd0ebb9c	-0.034846887
53	0x3c406ebf	0.011745154
54	0xbd1276cf	-0.035757836
55	0xbcf38762	-0.029727641
56	0xbbc0f86f	-0.0058889906
57	0x3d62b124	0.055344716
58	0xbdad8f0f	-0.08474552
59	0xbc51dfa7	-0.0128096705
60	0xbcf85c62	-0.030317489
61	0x3d9aedf8	0.0756492
62	0xbd45db65	-0.048304934
63	0xbce6541f	-0.028116284
64	0x38f474db	0.00011656593
65	0x3d3eca76	0.0465798
66	0xbd5364a4	-0.05160965
67	0xbd0a3283	-0.033739578
68	0x3d4dda95	0.050257284
69	0x3c879482	0.016550306
70	0x39ac3e6a	0.000328529
71	0x3b7ac626	0.0038265078
72	0x3dbc6e98	0.092007816
73	0xbd6541fe	-0.05597114
74	0xbd14de64	-0.0363449
75	0x3d3947a6	0.045234345
76	0x3dacf261	0.084446676
77	0xbcf3762b	-0.029719433
78	0x3d1cfda4	0.038327828
79	0x3c3d4c91	0.011553899
80	0x3cd29332	0.025704954
81	0xbc5a2b16	-0.013315937
82	0xbd9e0f38	-0.077177465
83	0xbd6ad141	-0.057328466
84	0xbd5d9fbf	-0.054107424
85	0x3de3716b	0.11105617
86	0xbb89268d	-0.004185504
87	0xbcb1b47b	-0.021692505
88	0xbc0c52a5	-0.008564626
89	0xbca769e2	-0.020436231
90	0x3bfdbf42	0.007743747
91	0x3a8268dc	0.0009949463
92	0xbd807b41	-0.06273509
93	0xbbaf9eb1	-0.0053594937
94	0xbc7889f0	-0.015169606
95	0xbb6a3619	-0.003573781
96	0xbd3ab91a	-0.045586683
97	0xbbcf2033	-0.006320977
98	0xbd5bb552	-0.053639717
99	0xbdc081cb	-0.09399756
100	0xbd7f85a2	-0.0623833
101	0xbc6a563f	-0.014302789
102	0xbd86bade	-0.06578611
103	0x3c0dbb36	0.008650592
104	0x3bcf7ae1	0.006331787
105	0xbbc315e0	-0.0059535354
106	0xbd7e4538	-0.06207773
107	0x3bcf861f	0.006333127
108	0xbdab54ca	-0.083657816
109	0x3d399a9f	0.045313474
110	0x3d107ab6	0.035273276
111	0xbdc3edb9	-0.095668264
112	0xbd6d5f6c	-0.05795233
113	0x3e0be61d	0.13662
114	0xbd8b14e8	-0.06791097
115	0x3d915d29	0.07097847
116	0xbbb2cc80	-0.005456507
117	0xbe0c1036	-0.13678059
118	0x3d1f257b	0.038854104
119	0xbba6ba74	-0.005088145
120	0x3d50b3c3	0.050952684
121	0x3dca164a	0.098675326
122	0xbd131639	-0.035909865
123	0xbe34935f	-0.17634343
124	0x3d20fe38	0.039304942
125	0xbcf5d2e6	-0.03000779
126	0xbd5445a7	-0.05182424
127	0xbc478931	-0.012178705
128	0xbdba661e	-0.091015086
129	0x3e004739	0.1252717
130	0xbd97c57b	-0.07410713
131	0x3c743108	0.014904268
132	0x3dcf803e	0.10131882
133	0x3d25e2ed	0.040499616
134	0xbcee8934	-0.029118158
135	0xbd6cdf25	-0.057829995
136	0xbd019c82	-0.031643398
137	0x3d90a87e	0.07063387
138	0xbd1b5102	-0.037919052
139	0xbd8540ee	-0.06506525
140	0x3d9757a2	0.073897615
141	0xbc530f85	-0.012882118
142	0xbe0a98b3	-0.13534813
143	0xbdf84340	-0.12122202
144	0x3df991ed	0.12186036
145	0xbd4a20af	-0.049347576
146	0x3befd680	0.0073192716
147	0x3caa635a	0.020799328
148	0xbd697d35	-0.057004172
149	0xbddd856e	-0.10816465
150	0xbd0c10be	-0.034195654
151	0xbdb09882	-0.086228386
152	0x3d72ddca	0.059293546
153	0x3b939dae	0.004504881
154	0x3d023066	0.031784438
155	0xbd469d04	-0.048489586
156	0x3de50684	0.111828834
157	0xbca118ff	-0.01966524
158	0x3b9c39f3	0.0047676503
159	0x3ca01b1c	0.019544177
160	0x3dd8cb35	0.10585634
161	0x3d14fe68	0.036375433
162	0xbc82f64f	-0.01598659
163	0xbca4e4fe	-0.020128723
164	0xbddcb295	-0.10776249
165	0xbd736fc0	-0.059432745
166	0x3b084edd	0.002079896
167	0x3cd7f509	0.026361959
168	0x3ddb4b3d	0.1070771
169	0xbcb03f55	-0.021514574
170	0x3d1220de	0.035675876
171	0x3b99e1cc	0.0046961065
172	0xbd30bb6f	-0.0431475
173	0xbcf612c9	-0.030038254
174	0xbcc243fd	-0.02371406
175	0xbcc7d7cd	-0.024394894
176	0xbc8ef003	-0.01744843
177	0xbd5483d8	-0.05188355
178	0xbddd4041	-0.10803271
179	0xbcb11d40	-0.021620393
180	0x3c02a5de	0.007974116
181	0xbbbb7521	-0.00572075
182	0xbcaee835	-0.02135096
183	0xbc8e9e16	-0.017409366
184	0xbe0fa3d7	-0.14027344
185	0xbdcf7a9c	-0.10130808
186	0xbd00397e	-0.03130483
187	0xbc1c8118	-0.009552263
188	0x3d33b26d	0.043871332
189	0x3c7ff5ec	0.015622597
190	0xbbebf235	-0.007200504
191	0xbde0df69	-0.10980112
192	0x3d50895b	0.050912242
193	0x3d8a0df2	0.06740941
194	0xbd0e7014	-0.034774855
195	0xbd231f5b	-0.039824825
196	0x3d279ed5	0.04092296
197	0x3c82fb5d	0.015989
198	0x3b3467b2	0.0027527628
199	0x3d1327e5	0.03592672
200	0x3c150ebc	0.009097751
201	0x3d246f85	0.040145416
202	0xbcfca05f	-0.03083819
203	0x3df50fb8	0.11965889
204	0x3c37229c	0.011177685
205	0x3d743f75	0.05963083
206	0xbd8abbe1	-0.06774116
207	0x3bc0d7ad	0.0058850856
208	0xbdaaba18	-0.08336276
209	0xbd38f59d	-0.04515611
210	0xbcdd2092	-0.02699307
211	0x3d35dbe7	0.04439917
212	0x3d8064a0	0.06269193
213	0x3d188050	0.037231743
214	0xbe351207	-0.17682658
215	0x3d45b3d9	0.04826722
216	0xbdf36e6c	-0.11886296
217	0x3d865ba8	0.06560451
218	0x3e3ee37c	0.18641466
219	0x3c9da599	0.019244002
220	0xbe24eb56	-0.16105399
221	0x3b48f293	0.0030662164
222	0x3d0f6c48	0.035015374
223	0x3d2fe637	0.04294416
224	0xbd250c8b	-0.040295165
225	0xbcbd3543	-0.023096686
226	0x3decb804	0.11558536
227	0x3d10b521	0.035328988
228	0xbd3282cc	-0.04358177
229	0xbced4cbc	-0.028967254
230	0x3db3fc27	0.087883286
231	0x3e00bb8e	0.12571546
232	0xbc078051	-0.008270339
233	0xbc3a9d21	-0.0113900015
234	0x3ba232f4	0.0049499217
235	0x3de506c5	0.11182932
236	0xbc8ebaca	-0.017423052
237	0x3c8925da	0.016741682
238	0x3ce9a4de	0.028520998
239	0x39ee2117	0.0004541955
240	0x3c0b4cd4	0.008502204
241	0xbde5927a	-0.11209579
242	0x3c0633f6	0.008191099
243	0x3c21ecff	0.009883164
244	0x3d63dc40	0.05562997
245	0xbde60acb	-0.11232527
246	0xbb2f1757	-0.0026716792
247	0xbc432f58	-0.011913143
248	0x3d326383	0.043551933
249	0xbd9a2436	-0.07526438
250	0x3c862bde	0.01637834
251	0xbe127918	-0.14304006
252	0x3cba55ee	0.022746053
253	0xbd8b6705	-0.06806759
254	0xbd2b7b8c	-0.04186587
255	0x3c8e4179	0.017365204

network_body._body_endoder.seq_layers.2.bias f4 [256]
0	0x00000000	0.0
1	0x00000000	0.0
2	0x00000000	0.0
3	0x00000000	0.0
4	0x00000000	0.0
5	0x00000000	0.0
6	0x00000000	0.0
7	0x00000000	0.0
8	0x00000000	0.0
9	0x00000000	0.0
10	0x00000000	0.0
11	0x00000000	0.0
12	0x00000000	0.0
13	0x00000000	0.0
14	0x00000000	0.0
15	0x00000000	0.0
16	0x00000000	0.0
17	0x00000000	0.0
18	0x00000000	0.0
19	0x00000000	0.0
20	0x00000000	0.0
21	0x00000000	0.0
22	0x00000000	0.0
23	0x00000000	0.0
24	0x00000000	0.0
25	0x00000000	0.0
26	0x00000000	0.0
27	0x00000000	0.0
28	0x00000000	0.0
29	0x00000000	0.0
30	0x00000000	0.0
31	0x00000000	0.0
32	0x00000000	0.0
33	0x00000000	0.0
34	0x00000000	0.0
35	0x00000000	0.0
36	0x00000000	0.0
37	0x00000000	0.0
38	0x00000000	0.0
39	0x00000000	0.0
40	0x00000000	0.0
41	0x00000000	0.0
42	0x00000000	0.0
43	0x00000000	0.0
44	0x00000000	0.0
45	0x00000000	0.0
46	0x00000000	0.0
47	0x00000000	0.0
48	0x00000000	0.0
49	0x00000000	0.0
50	0x00000000	0.0
51	0x00000000	0.0
52	0x00000000	0.0
53	0x00000000	0.0
54	0x00000000	0.0
55	0x00000000	0.0
56	0x00000000	0.0
57	0x00000000	0.0
58	0x00000000	0.0
59	0x00000000	0.0
60	0x00000000	0.0
61	0x00000000	0.0
62	0x00000000	0.0
63	0x00000000	0.0
64	0x00000000	0.0
65	0x00000000	0.0
66	0x00000000	0.0
67	0x00000000	0.0
68	0x00000000	0.0
69	0x00000000	0.0
70	0x00000000	0.0
71	0x00000000	0.0
72	0x00000000	0.0
73	0x00000000	0.0
74	0x00000000	0.0
75	0x00000000	0.0
76	0x00000000	0.0
77	0x00000000	0.0
78	0x00000000	0.0
79	0x00000000	0.0
80	0x00000000	0.0
81	0x00000000	0.0
82	0x00000000	0.0
83	0x00000000	0.0
84	0x00000000	0.0
85	0x00000000	0.0
86	0x00000000	0.0
87	0x00000000	0.0
88	0x00000000	0.0
89	0x00000000	0.0
90	0x00000000	0.0
91	0x00000000	0.0
92	0x00000000	0.0
93	0x00000000	0.0
94	0x00000000	0.0
95	0x00000000	0.0
96	0x00000000	0.0
97	0x00000000	0.0
98	0x00000000	0.0
99	0x00000000	0.0
100	0x00000000	0.0
101	0x00000000	0.0
102	0x00000000	0.0
103	0x00000000	0.0
104	0x00000000	0.0
105	0x00000000	0.0
106	0x00000000	0.0
107	0x00000000	0.0
108	0x00000000	0.0
109	0x00000000	0.0
110	0x00000000	0.0
111	0x00000000	0.0
112	0x00000000	0.0
113	0x00000000	0.0
114	0x00000000	0.0
115	0x00000000	0.0
116	0x00000000	0.0
117	0x00000000	0.0
118	0x00000000	0.0
119	0x00000000	0.0
120	0x00000000	0.0
121	0x00000000	0.0
122	0x00000000	0.0
123	0x00000000	0.0
124	0x00000000	0.0
125	0x00000000	0.0
126	0x00000000	0.0
127	0x00000000	0.0
128	0x00000000	0.0
129	0x00000000	0.0
130	0x00000000	0.0
131	0x00000000	0.0
132	0x00000000	0.0
133	0x00000000	0.0
134	0x00000000	0.0
135	0x00000000	0.0
136	0x00000000	0.0
137	0x00000000	0.0
138	0x00000000	0.0
139	0x00000000	0.0
140	0x00000000	0.0
141	0x00000000	0.0
142	0x00000000	0.0
143	0x00000000	0.0
144	0x00000000	0.0
145	0x00000000	0.0
146	0x00000000	0.0
147	0x00000000	0.0
148	0x00000000	0.0
149	0x00000000	0.0
150	0x00000000	0.0
151	0x00000000	0.0
152	0x00000000	0.0
153	0x00000000	0.0
154	0x00000000	0.0
155	0x00000000	0.0
156	0x00000000	0.0
157	0x00000000	0.0
158	0x00000000	0.0
159	0x00000000	0.0
160	0x00000000	0.0
161	0x00000000	0.0
162	0x00000000	0.0
163	0x00000000	0.0
164	0x00000000	0.0
165	0x00000000	0.0
166	0x00000000	0.0
167	0x00000000	0.0
168	0x00000000	0.0
169	0x00000000	0.0
170	0x00000000	0.0
171	0x00000000	0.0
172	0x00000000	0.0
173	0x00000000	0.0
174	0x00000000	0.0
175	0x00000000	0.0
176	0x00000000	0.0
177	0x00000000	0.0
178	0x00000000	0.0
179	0x00000000	0.0
180	0x00000000	0.0
181	0x00000000	0.0
182	0x00000000	0.0
183	0x00000000	0.0
184	0x00000000	0.0
185	0x00000000	0.0
186	0x00000000	0.0
187	0x00000000	0.0
188	0x00000000	0.0
189	0x00000000	0.0
190	0x00000000	0.0
191	0x00000000	0.0
192	0x00000000	0.0
193	0x00000000	0.0
194	0x00000000	0.0
195	0x00000000	0.0
196	0x00000000	0.0
197	0x00000000	0.0
198	0x00000000	0.0
199	0x00000000	0.0
200	0x00000000	0.0
201	0x00000000	0.0
202	0x00000000	0.0
203	0x00000000	0.0
204	0x00000000	0.0
205	0x00000000	0.0
206	0x00000000	0.0
207	0x00000000	0.0
208	0x00000000	0.0
209	0x00000000	0.0
210	0x00000000	0.0
211	0x00000000	0.0
212	0x00000000	0.0
213	0x00000000	0.0
214	0x00000000	0.0
215	0x00000000	0.0
216	0x00000000	0.0
217	0x00000000	0.0
218	0x00000000	0.0
219	0x00000000	0.0
220	0x00000000	0.0
221	0x00000000	0.0
222	0x00000000	0.0
223	0x00000000	0.0
224	0x00000000	0.0
225	0x00000000	0.0
226	0x00000000	0.0
227	0x00000000	0.0
228	0x00000000	0.0
229	0x00000000	0.0
230	0x00000000	0.0
231	0x00000000	0.0
232	0x00000000	0.0
233	0x00000000	0.0
234	0x00000000	0.0
235	0x00000000	0.0
236	0x00000000	0.0
237	0x00000000	0.0
238	0x00000000	0.0
239	0x00000000	0.0
240	0x00000000	0.0
241	0x00000000	0.0
242	0x00000000	0.0
243	0x00000000	0.0
244	0x00000000	0.0
245	0x00000000	0.0
246	0x00000000	0.0
247	0x00000000	0.0
248	0x00000000	0.0
249	0x00000000	0.0
250	0x00000000	0.0
251	0x00000000	0.0
252	0x00000000	0.0
253	0x00000000	0.0
254	0x00000000	0.0
255	0x00000000	0.0

action_model._continuous_distribution.log_sigma f4 [1, 2]
0	0x00000000	0.0
1	0x00000000	0.0

action_model._continuous_distribution.mu.weight f4 [2, 256]
0	0x3d1b1056	0.037857376
1	0x3a5ec520	0.0008498002
2	0xbd02af26	-0.031905316
3	0x3c2048e9	0.009783008
4	0xbc8ff80f	-0.017574338
5	0xbc0e261f	-0.008676081
6	0xbb9a3c67	-0.0047069076
7	0xbbe1f31d	-0.0068954364
8	0x3cbb2668	0.022845462
9	0xbc0105ce	-0.007874919
10	0x3c84a8ea	0.016193826
11	0x3ca8f56f	0.020624844
12	0x3c8535c1	0.016260983
13	0x3b9f5ee7	0.004863608
14	0xbca10096	-0.0196536
15	0xbbabf237	-0.00524738
16	0xbcf664b2	-0.030077312
17	0x3cb31f16	0.021865409
18	0xbb3f96d1	-0.002923418
19	0x3c128107	0.008941895
20	0xbb8a1c23	-0.00421478
21	0x3b2131c1	0.0024596306
22	0xbc43026b	-0.011902432
23	0x3b91398f	0.0044319103
24	0xbca6bda6	-0.020354103
25	0xbc21c435	-0.00987344
26	0xbb5aa662	-0.0033363332
27	0xbc3e3d39	-0.011611276
28	0xbc575da5	-0.013144885
29	0xbba0ecce	-0.004911042
30	0xb94c4b7b	-0.00019483075
31	0x3ca221c3	0.01979149
32	0x3b1d7193	0.0024023994
33	0xbb9a7af3	-0.0047143637
34	0xbc2023e3	-0.009774181
35	0x3c887e68	0.016661838
36	0x3c15fd5e	0.009154646
37	0x3c030340	0.00799638
38	0x3b8baacf	0.0042623053
39	0x3cb692cc	0.022286795
40	0x3ba5bd07	0.005057934
41	0xbca6f7b1	-0.02038178
42	0xbc07b321	-0.008282454
43	0x3af13873	0.0018403664
44	0x3c4a8beb	0.012362461
45	0xba018f46	-0.0004942309
46	0xba9c26ef	-0.0011913459
47	0x3c995bb7	0.01872049
48	0x3b5c60ef	0.0033627113
49	0xbb2b5faf	-0.002614956
50	0x3c1d36c9	0.009595581
51	0x3c2c8c03	0.010531428
52	0x3bd0442d	0.0063557834
53	0x3c31133c	0.0108078085
54	0x3c1dddf2	0.009635435
55	0xbc1fc363	-0.009751174
56	0xbc845cd2	-0.016157541
57	0xbc32dea7	-0.010917342
58	0xbb2644c7	-0.0025370584
59	0xbc4611f3	-0.01208924
60	0xbba41b99	-0.0050081727
61	0x3bf46e62	0.0074594477
62	0x3c077c40	0.00826937
63	0x3bcf38b7	0.0063238996
64	0x3a21badc	0.0006169507
65	0xbc0b8959	-0.008516633
66	0xbb7ff815	-0.003905778
67	0xbbd5f840	-0.006529838
68	0xbbac01b5	-0.005249227
69	0x3c051f31	0.008125112
70	0xbbe14c4f	-0.006875552
71	0x3ca8a3c1	0.020585896
72	0x3c86d749	0.016460078
73	0x3ba1f7f6	0.0049428893
74	0x3bb7071b	0.005585564
75	0x3ca49884	0.020092256
76	0x3b93ab46	0.0045065014
77	0xbbe3087d	-0.006928502
78	0x3cccc7e2	0.024997655
79	0xbaa3fb28	-0.0012510763
80	0xbc91de3c	-0.017806165
81	0x384726a0	4.748127e-05
82	0xbbb37173	-0.0054761707
83	0xb96b1083	-0.00022417498
84	0x3b0347fc	0.002003192
85	0xbbbe3907	-0.005805138
86	0x3c56d182	0.013111474
87	0x3c06a027	0.008216894
88	0xbaecc0c0	-0.0018062815
89	0xbc95ba4a	-0.018277306
90	0x3c058a08	0.008150585
91	0xbc63357d	-0.013867733
92	0xbbc61aa0	-0.0060456544
93	0x3c8100b8	0.015747413
94	0x3b82b816	0.00398923
95	0xbbd2e0c2	-0.0064354846
96	0xbc30a778	-0.010782115
97	0x3c2f5b57	0.010702929
98	0xbc472840	-0.012155592
99	0xbc40883b	-0.01175123
100	0x3b1865c5	0.0023254019
101	0xbb49c1bf	-0.0030785648
102	0x3c026e79	0.007960909
103	0x3bd5e088	0.0065270104
104	0x3b6fa433	0.0036566376
105	0xbc2b016a	-0.010437349
106	0x3c97d827	0.018535687
107	0x3d05dcd2	0.032681294
108	0x3c72ba32	0.0148149
109	0xbb5c375a	-0.0033602328
110	0x3ad14a3a	0.0015967556
111	0xbcaab935	-0.020840267
112	0x3c1aaace	0.009440137
113	0xbc618875	-0.013765444
114	0x3c3cc4d4	0.011521537
115	0x3bcda50d	0.006275779
116	0x3cd683dd	0.026185924
117	0xbc7f5d93	-0.015586275
118	0xbb83a137	-0.004017021
119	0xbbc2dad2	-0.0059464956
120	0x3b38db9c	0.002820707
121	0x3adea900	0.0016987622
122	0x3c43939f	0.011937051
123	0x3c546ad3	0.012964922
124	0x3bf3d288	0.0074408688
125	0x3c84bdba	0.01620375
126	0xbc25bca3	-0.010115775
127	0xbb02e8d3	-0.00199752
128	0x3c0bc90f	0.008531823
129	0x3c8d4f02	0.017249588
130	0x3c1eb58c	0.009686839
131	0xbcaa8eb1	-0.020819994
132	0x3c67b8d5	0.0141431885
133	0x3ba9f310	0.005186446
134	0x3c0657f4	0.008199681
135	0x3d1268a9	0.035744343
136	0xba0a43d9	-0.00052743923
137	0xba90020d	-0.0010986939
138	0xbc5f6f95	-0.013637443
139	0xbc7185db	-0.014741386
140	0xbacd722a	-0.0015674282
141	0xbb981b72	-0.0046419436
142	0xbc3c4d35	-0.011493017
143	0x3bd0cf85	0.0063723945
144	0xbbd31153	-0.006441274
145	0x3bb88d3f	0.005632072
146	0x3cc3cc07	0.023900999
147	0xbc5dd9cb	-0.013540695
148	0xbb5fa78f	-0.0034126972
149	0x3c25ae17	0.010112307
150	0x3c0e5476	0.008687129
151	0x3a6957f8	0.0008901353
152	0x3c1b6efc	0.00948691
153	0x3bb8946f	0.005632929
154	0x3a573b9f	0.00082104834
155	0x3c07cf7e	0.008289216
156	0x3ab58faa	0.0013852019
157	0x3c8d9bce	0.017286208
158	0x3be46e0d	0.006971127
159	0x3c9623a1	0.018327536
160	0xbb50bb9f	-0.0031850112
161	0xbbc2c885	-0.005944314
162	0x3be4f69a	0.006987405
163	0xbbfc0320	-0.007690802
164	0x3c5815b3	0.013188767
165	0x3bc29565	0.0059382194
166	0xbb422df4	-0.002962944
167	0xbaf9d833	-0.0019061625
168	0x3c54425f	0.012955277
169	0x3c2a4637	0.010392717
170	0xb966b382	-0.00022001381
171	0xba2d96ab	-0.00066218775
172	0xb98a5c5f	-0.00026390233
173	0xbbceb2f0	-0.006307952
174	0x3c4db25b	0.01255473
175	0xbc87e85c	-0.01659029
176	0x3b5933c5	0.003314243
177	0x3abb9857	0.0014312369
178	0x3b5f1478	0.00340393
179	0x3c0b83d8	0.008515321
180	0xbb9d37c8	-0.0047979094
181	0xbca266ae	-0.019824352
182	0xbaff4f53	-0.0019478597
183	0xbbd95718	-0.006632697
184	0x3c08b26f	0.008343323
185	0x3c8aa1f1	0.016922923
186	0x3a84045f	0.0010072103
187	0xbbdb43f2	-0.0066914493
188	0xbc471eff	-0.012153386
189	0x3b4adaff	0.0030953286
190	0xbb4453cf	-0.002995718
191	0x3c9f8ea2	0.019477192
192	0x3c2059bf	0.009787022
193	0xbb1ebcf9	-0.0024221523
194	0x3b6160ab	0.0034389894
195	0xbbb15bf2	-0.005412572
196	0xbbac1ae7	-0.0052522304
197	0xbc09f16a	-0.008419374
198	0x3c0f24cd	0.008736801
199	0xbca72634	-0.020403959
200	0x3c311a97	0.010809562
201	0x3ad08a0d	0.0015910283
202	0x3c2873fa	0.010281557
203	0xbc8f8bb0	-0.017522663
204	0xbcf341d5	-0.029694477
205	0x3c6e1d3a	0.014533335
206	0x3c7a388b	0.01527227
207	0xbc606f8f	-0.013698473
208	0xbc8a6447	-0.01689352
209	0xbcfc5397	-0.030801577
210	0x3ca100d3	0.019653713
211	0x3c6e919a	0.014561081
212	0xba9e0daf	-0.0012058521
213	0x3c9e061b	0.01929002
214	0xbcb1c454	-0.021700062
215	0x3c9f9b65	0.019483278
216	0xbb121e88	-0.002229603
217	0x3bef70bf	0.0073071416
218	0x3c2a1f4e	0.01038344
219	0xbc11bd29	-0.008895197
220	0x3c5db255	0.013531287
221	0xbce594af	-0.028025
222	0xbc2cb977	-0.010542265
223	0x3be19c52	0.00688509
224	0xbc974138	-0.018463716
225	0xbadfd210	-0.0017076153
226	0x3bdaf288	0.006681744
227	0x3b8c4cc8	0.004281614
228	0xbbe7fb67	-0.00707953
229	0x3c3e5258	0.011616312
230	0x3c52d34f	0.012867763
231	0x3bca8769	0.006180693
232	0xbc4fc4c2	-0.012681188
233	0xbb77b727	-0.0037798376
234	0xbb07109f	-0.0020609272
235	0x3c4b7450	0.012417868
236	0x3c83cb55	0.016088167
237	0xbc9e0121	-0.019287648
238	0xbc2ecc9e	-0.010668902
239	0x3bb9dc15	0.005671988
240	0xbabd359b	-0.0014435531
241	0x3c362b9f	0.0111187985
242	0x3d00abe6	0.031413935
243	0xbb2dfb30	-0.0026547424
244	0xbcee4782	-0.029086832
245	0xbc0953b9	-0.008381777
246	0x3c1e2b6a	0.009653905
247	0xbb9af6d0	-0.0047291294
248	0x3b40e011	0.002943043
249	0xbb9d0496	-0.0047918065
250	0xbb7958cf	-0.0038047319
251	0x3c556fc8	0.013027139
252	0xba001323	-0.0004885664
253	0xbca3fb1f	-0.020017205
254	0x3bc5f7d7	0.0060415077
255	0x3c06c7f9	0.008226388

action_model._continuous_distribution.mu.bias f4 [2]
0	0x00000000	0.0
1	0x00000000	0.0

network_body.observation_encoder.processors.0.normalizer.running_mean f4 [18]
0	0x00000000	0.0
1	0x00000000	0.0
2	0x00000000	0.0
3	0x00000000	0.0
4	0x00000000	0.0
5	0x00000000	0.0
6	0x00000000	0.0
7	0x00000000	0.0
8	0x00000000	0.0
9	0x00000000	0.0
10	0x00000000	0.0
11	0x00000000	0.0
12	0x00000000	0.0
13	0x00000000	0.0
14	0x00000000	0.0
15	0x00000000	0.0
16	0x00000000	0.0
17	0x00000000	0.0

network_body.observation_encoder.processors.0.normalizer.running_variance f4 [18]
0	0x3f800000	1.0
1	0x3f800000	1.0
2	0x3f800000	1.0
3	0x3f800000	1.0
4	0x3f800000	1.0
5	0x3f800000	1.0
6	0x3f800000	1.0
7	0x3f800000	1.0
8	0x3f800000	1.0
9	0x3f800000	1.0
10	0x3f800000	1.0
11	0x3f800000	1.0
12	0x3f800000	1.0
13	0x3f800000	1.0
14	0x3f800000	1.0
15	0x3f800000	1.0
16	0x3f800000	1.0
17	0x3f800000	1.0

network_body.processors.0.normalizer.running_mean f4 [18]
0	0x00000000	0.0
1	0x00000000	0.0
2	0x00000000	0.0
3	0x00000000	0.0
4	0x00000000	0.0
5	0x00000000	0.0
6	0x00000000	0.0
7	0x00000000	0.0
8	0x00000000	0.0
9	0x00000000	0.0
10	0x00000000	0.0
11	0x00000000	0.0
12	0x00000000	0.0
13	0x00000000	0.0
14	0x00000000	0.0
15	0x00000000	0.0
16	0x00000000	0.0
17	0x00000000	0.0

network_body.processors.0.normalizer.running_variance f4 [18]
0	0x3f800000	1.0
1	0x3f800000	1.0
2	0x3f800000	1.0
3	0x3f800000	1.0
4	0x3f800000	1.0
5	0x3f800000	1.0
6	0x3f800000	1.0
7	0x3f800000	1.0
8	0x3f800000	1.0
9	0x3f800000	1.0
10	0x3f800000	1.0
11	0x3f800000	1.0
12	0x3f800000	1.0
13	0x3f800000	1.0
14	0x3f800000	1.0
15	0x3f800000	1.0
16	0x3f800000	1.0
17	0x3f800000	1.0

network_body._body_endoder.seq_layers.0.weight f4 [256, 18]
0	0x3e244718	0.16042745
1	0x3e9da98b	0.30793414
2	0xbe028b0c	-0.12748355
3	0x3dbc235f	0.09186434
4	0x3ec65d9e	0.387433
5	0xbd72fa25	-0.059320588
6	0x3d2631b4	0.040574744
7	0xbc78b128	-0.015178956
8	0xbd5626c0	-0.05228305
9	0xb9809c7d	-0.00024530655
10	0xbe89c84f	-0.26910636
11	0xbe50d713	-0.20394544
12	0x3d1f5f6b	0.038909357
13	0xbc6ae601	-0.014337064
14	0xbd8b5863	-0.06803968
15	0xbd19ccfd	-0.037549008
16	0xbdb9c3c9	-0.09070546
17	0x3e617287	0.22016345
18	0xbf0348d7	-0.5128302
19	0x3cce01c7	0.025147332
20	0x3c7dac0e	0.015482916
21	0xbf11e599	-0.56990963
22	0xbe6ece5a	-0.23320904
23	0x3cab1421	0.020883622
24	0xbe794d4d	-0.24345894
25	0x3d21a5cd	0.03946476
26	0xbeae1e0f	-0.34007308
27	0x3cd288e0	0.025700033
28	0x3ecd8e0b	0.40147433
29	0xbe8e7765	-0.27825466
30	0x3ba16d05	0.004926326
31	0xbca7a9cc	-0.020466708
32	0xbce58193	-0.028015887
33	0xbecb4b17	-0.39705727
34	0xbe40be83	-0.18822674
35	0xbe84f459	-0.25967672
36	0xbea9b692	-0.33147103
37	0x3db40b61	0.08791233
38	0xbe920183	-0.28516778
39	0xbed23159	-0.41053274
40	0xbe99444c	-0.2993492
41	0xbdcb913f	-0.09939813
42	0xbd2403d4	-0.040042713
43	0x3d99439d	0.07483599
44	0xbe8a36c1	-0.269949
45	0xbeddabfe	-0.43295282
46	0xbe2ea8cd	-0.1705658
47	0x3d8efde3	0.06982019
48	0x3eac34bb	0.3363398
49	0x3de45296	0.111485645
50	0xbeb8c3f9	-0.36087015
51	0xbe85218d	-0.2600216
52	0x3d57afaf	0.05265778
53	0x3ecff5f7	0.40617344
54	0xbe8d0ad9	-0.2754734
55	0xbe8afe59	-0.27147177
56	0xbec5b256	-0.38612622
57	0x3d58ef8a	0.052962817
58	0x3daa7fe4	0.083251745
59	0x3e9c777d	0.30559912
60	0xbc5b043e	-0.013367711
61	0xbe08ecd4	-0.13371593
62	0x3e35414e	0.17700693
63	0xbe2bb0f2	-0.16766718
64	0xbe795550	-0.2434895
65	0xbe23b24e	-0.15985987
66	0x3e03a75a	0.12856808
67	0xbe520115	-0.20508225
68	0xbe81f2c2	-0.25380522
69	0xbd38ce83	-0.04511882
70	0xbe9d8065	-0.3076202
71	0x3ebb7a45	0.36616722
72	0xbc862ceb	-0.01637884
73	0xbeb19f11	-0.3469167
74	0xbe7d1c63	-0.2471786
75	0xbef18c66	-0.47177428
76	0xbdd899de	-0.10576223
77	0x3e3b63ae	0.18299744
78	0xbec2affa	-0.38024884
79	0x3e67b17a	0.22626296
80	0x3e7d6ffd	0.24749751
81	0xbd92b9ca	-0.07164343
82	0xbe92f3a0	-0.28701496
83	0xbdb077fd	-0.08616636
84	0xbde9abc1	-0.114097126
85	0x3db2e6a5	0.08735398
86	0x3ede1d16	0.43381566
87	0xbdbffa07	-0.09373861
88	0xbdedfaeb	-0.116201244
89	0xbc8fd03a	-0.017555345
90	0x3aa35f3d	0.0012464296
91	0xbe7397cd	-0.23788376
92	0x3ef14324	0.47121537
93	0x3de6699e	0.11250614
94	0x3f0f3f33	0.5595581
95	0xbd4f5d66	-0.05062618
96	0x3d8dd54a	0.06925447
97	0x3e80f64d	0.25187913
98	0xbd2431f0	-0.040086687
99	0x3e6ff1cf	0.23432086
100	0xbecaf58f	-0.3964047
101	0xbecf347c	-0.4046973
102	0xbe6638aa	-0.22482553
103	0x3e108ad0	0.14115453
104	0x3eea67f3	0.45782432
105	0x3e444604	0.19167334
106	0xbedd00c0	-0.43164635
107	0x3e8ede34	0.27903903
108	0x3c13ec99	0.009028577
109	0xbc874b45	-0.016515383
110	0xbd0e9425	-0.03480925
111	0xbd3a0df2	-0.045423456
112	0xbcdf87b6	-0.027286392
113	0xbe8d9872	-0.2765537
114	0x3e89e315	0.26931062
115	0x3f190abb	0.59782
116	0xbdbfa671	-0.09357918
117	0x3d5caa11	0.053873125
118	0x3f0ba0f2	0.5454246
119	0x3dc97e65	0.09838561
120	0x3eb3c33f	0.35109898
121	0xbe73ab95	-0.23795922
122	0xbe99356b	-0.29923567
123	0xbeabf534	-0.33585513
124	0xbe4d163e	-0.20028016
125	0xbede4a8f	-0.4341626
126	0x3e45635f	0.19276188
127	0xbe46a350	-0.19398236
128	0xbe3ccb34	-0.18436891
129	0xbf0aa76b	-0.5416171
130	0xbdd41d5e	-0.10357164
131	0x3e22faea	0.15916029
132	0xbe8edc23	-0.27902326
133	0x3e8873e3	0.26650915
134	0xbde4d405	-0.11173252
135	0x3d14303a	0.036178805
136	0x3e2e40c9	0.17016901
137	0x3e6f23b0	0.23353457
138	0x3ee80cc0	0.45322227
139	0x3e68f62c	0.22750157
140	0xbe8f6051	-0.2800317
141	0x3e8dbcdd	0.27683154
142	0x3e927801	0.2860718
143	0x3d8dba34	0.06920281
144	0xbc6c20e4	-0.014412139
145	0x3e045222	0.12921956
146	0xbe5a650a	-0.21327606
147	0x3e93e02f	0.28881976
148	0x3db0a1bc	0.086245984
149	0x3ec3b3de	0.38223165
150	0xbcfd8469	-0.030946927
151	0x3e0e9b88	0.13926518
152	0x3dbc3aab	0.091908775
153	0x3d6404ff	0.055668827
154	0x3f116995	0.5680173
155	0x3e6978e1	0.22800018
156	0x3d3836bb	0.04497407
157	0xbe2b5a17	-0.16733585
158	0xbc54562f	-0.012960001
159	0xbe5c4291	-0.21509768
160	0xbd80631f	-0.06268906
161	0x3e174b93	0.14774923
162	0xbd69fe02	-0.057127006
163	0xbe5a407f	-0.21313666
164	0x3e8099d5	0.25117365
165	0xbbc9eb33	-0.006162071
166	0xbe979ce2	-0.2961188
167	0xbd332ed7	-0.04374584
168	0x3d3b4d2e	0.0457279
169	0xbdc4d7a1	-0.096114404
170	0x3ea85a54	0.32881415
171	0xbe32bd17	-0.17454945
172	0x3e44194d	0.19150276
173	0xbb718e93	-0.0036858662
174	0xbd9bdc29	-0.076103516
175	0xbde9eacc	-0.11421737
176	0xbea6b9da	-0.32563668
177	0xbf069e2d	-0.5258511
178	0x3ea82441	0.3284016
179	0xbd95a4e3	-0.0730684
180	0x3d0c184c	0.03420286
181	0x3e8ee0d7	0.27905914
182	0xbe5fa608	-0.2184068
183	0x3d242f49	0.040084157
184	0x3d7d2523	0.061802994
185	0x3db5cb33	0.08876648
186	0x3dc0f90b	0.09422501
187	0xbec54b56	-0.3853404
188	0x3dfd1c1d	0.12358878
189	0x3e92a933	0.28644714
190	0x3e2d1549	0.16902651
191	0x3dccede7	0.10006314
192	0x3ec28fe5	0.38000408
193	0xbd1de70f	-0.038550433
194	0xbec04f0d	-0.3756031
195	0x3e89c50f	0.26908156
196	0xbe36b648	-0.17842972
197	0x3d9a4519	0.075327106
198	0xbe95eed4	-0.29283774
199	0x3c2ae28c	0.01042999
200	0xbee0c082	-0.43896872
201	0x3dc0e59c	0.094187945
202	0xbebbb946	-0.3666479
203	0xbdb59f60	-0.08868289
204	0x3e193fb8	0.14965713
205	0xbd42c65a	-0.047552444
206	0x3dde6ee7	0.10860997
207	0x3ed902b2	0.4238487
208	0xbe9e3b31	-0.30904534
209	0x3d1b8cea	0.037976183
210	0xbe1bf3ed	-0.15229769
211	0xbda15a77	-0.07878583
212	0x3ef8d9c9	0.48603657
213	0xbd69a36d	-0.05704062
214	0x3d6b5501	0.057454113
215	0xbe11f9ae	-0.14255401
216	0xbe9bdcaa	-0.3044179
217	0x3efd133b	0.49428734
218	0xbf28eafd	-0.65983564
219	0xbe4d34d0	-0.20039678
220	0xbe04d496	-0.1297172
221	0x3e80ce25	0.25157276
222	0xbd8b5182	-0.06802656
223	0x3f0cf635	0.5506318
224	0xbe0c3b54	-0.13694507
225	0xbea34f47	-0.3189642
226	0xbde81890	-0.1133281
227	0x3e875666	0.26433104
228	0xbe976a3a	-0.29573232
229	0x3df8b78c	0.12144384
230	0x3d8dfaa4	0.069325715
231	0xbcc70d9a	-0.024298478
232	0x3e00cb7f	0.12577628
233	0xbed9e484	-0.42557156
234	0xbe9aa2ac	-0.30202234
235	0xbdcc1147	-0.09964233
236	0x3e5ebfb0	0.2175281
237	0xbea79a24	-0.32734787
238	0xbd4086de	-0.04700362
239	0xbe34704f	-0.17620967
240	0x3c9752bf	0.018472074
241	0xbc3116d7	-0.010808668
242	0x3ea07a0f	0.31343123
243	0xbe64e1e4	-0.22351795
244	0xbe85ea0f	-0.26155135
245	0xbe870deb	-0.26377806
246	0xbe9d1dcf	-0.30686805
247	0xbe55758d	-0.20845623
248	0xbf000daa	-0.5002085
249	0x3dd47e37	0.10375636
250	0x3e436e88	0.19085133
251	0xbd87da9c	-0.06633493
252	0xbcabee3f	-0.020987628
253	0xbebd2322	-0.36940867
254	0x3e75dd98	0.24010313
255	0xbc98ec09	-0.018667238

network_body._body_endoder.seq_layers.0.bias f4 [256]
0	0x00000000	0.0
1	0x00000000	0.0
2	0x00000000	0.0
3	0x00000000	0.0
4	0x00000000	0.0
5	0x00000000	0.0
6	0x00000000	0.0
7	0x00000000	0.0
8	0x00000000	0.0
9	0x00000000	0.0
10	0x00000000	0.0
11	0x00000000	0.0
12	0x00000000	0.0
13	0x00000000	0.0
14	0x00000000	0.0
15	0x00000000	0.0
16	0x00000000	0.0
17	0x00000000	0.0
18	0x00000000	0.0
19	0x00000000	0.0
20	0x00000000	0.0
21	0x00000000	0.0
22	0x00000000	0.0
23	0x00000000	0.0
24	0x00000000	0.0
25	0x00000000	0.0
26	0x00000000	0.0
27	0x00000000	0.0
28	0x00000000	0.0
29	0x00000000	0.0
30	0x00000000	0.0
31	0x00000000	0.0
32	0x00000000	0.0
33	0x00000000	0.0
34	0x00000000	0.0
35	0x00000000	0.0
36	0x00000000	0.0
37	0x00000000	0.0
38	0x00000000	0.0
39	0x00000000	0.0
40	0x00000000	0.0
41	0x00000000	0.0
42	0x00000000	0.0
43	0x00000000	0.0
44	0x00000000	0.0
45	0x00000000	0.0
46	0x00000000	0.0
47	0x00000000	0.0
48	0x00000000	0.0
49	0x00000000	0.0
50	0x00000000	0.0
51	0x00000000	0.0
52	0x00000000	0.0
53	0x00000000	0.0
54	0x00000000	0.0
55	0x00000000	0.0
56	0x00000000	0.0
57	0x00000000	0.0
58	0x00000000	0.0
59	0x00000000	0.0
60	0x00000000	0.0
61	0x00000000	0.0
62	0x00000000	0.0
63	0x00000000	0.0
64	0x00000000	0.0
65	0x00000000	0.0
66	0x00000000	0.0
67	0x00000000	0.0
68	0x00000000	0.0
69	0x00000000	0.0
70	0x00000000	0.0
71	0x00000000	0.0
72	0x00000000	0.0
73	0x00000000	0.0
74	0x00000000	0.0
75	0x00000000	0.0
76	0x00000000	0.0
77	0x00000000	0.0
78	0x00000000	0.0
79	0x00000000	0.0
80	0x00000000	0.0
81	0x00000000	0.0
82	0x00000000	0.0
83	0x00000000	0.0
84	0x00000000	0.0
85	0x00000000	0.0
86	0x00000000	0.0
87	0x00000000	0.0
88	0x00000000	0.0
89	0x00000000	0.0
90	0x00000000	0.0
91	0x00000000	0.0
92	0x00000000	0.0
93	0x00000000	0.0
94	0x00000000	0.0
95	0x00000000	0.0
96	0x00000000	0.0
97	0x00000000	0.0
98	0x00000000	0.0
99	0x00000000	0.0
100	0x00000000	0.0
101	0x00000000	0.0
102	0x00000000	0.0
103	0x00000000	0.0
104	0x00000000	0.0
105	0x00000000	0.0
106	0x00000000	0.0
107	0x00000000	0.0
108	0x00000000	0.0
109	0x00000000	0.0
110	0x00000000	0.0
111	0x00000000	0.0
112	0x00000000	0.0
113	0x00000000	0.0
114	0x00000000	0.0
115	0x00000000	0.0
116	0x00000000	0.0
117	0x00000000	0.0
118	0x00000000	0.0
119	0x00000000	0.0
120	0x00000000	0.0
121	0x00000000	0.0
122	0x00000000	0.0
123	0x00000000	0.0
124	0x00000000	0.0
125	0x00000000	0.0
126	0x00000000	0.0
127	0x00000000	0.0
128	0x00000000	0.0
129	0x00000000	0.0
130	0x00000000	0.0
131	0x00000000	0.0
132	0x00000000	0.0
133	0x00000000	0.0
134	0x00000000	0.0
135	0x00000000	0.0
136	0x00000000	0.0
137	0x00000000	0.0
138	0x00000000	0.0
139	0x00000000	0.0
140	0x00000000	0.0
141	0x00000000	0.0
142	0x00000000	0.0
143	0x00000000	0.0
144	0x00000000	0.0
145	0x00000000	0.0
146	0x00000000	0.0
147	0x00000000	0.0
148	0x00000000	0.0
149	0x00000000	0.0
150	0x00000000	0.0
151	0x00000000	0.0
152	0x00000000	0.0
153	0x00000000	0.0
154	0x00000000	0.0
155	0x00000000	0.0
156	0x00000000	0.0
157	0x00000000	0.0
158	0x00000000	0.0
159	0x00000000	0.0
160	0x00000000	0.0
161	0x00000000	0.0
162	0x00000000	0.0
163	0x00000000	0.0
164	0x00000000	0.0
165	0x00000000	0.0
166	0x00000000	0.0
167	0x00000000	0.0
168	0x00000000	0.0
169	0x00000000	0.0
170	0x00000000	0.0
171	0x00000000	0.0
172	0x00000000	0.0
173	0x00000000	0.0
174	0x00000000	0.0
175	0x00000000	0.0
176	0x00000000	0.0
177	0x00000000	0.0
178	0x00000000	0.0
179	0x00000000	0.0
180	0x00000000	0.0
181	0x00000000	0.0
182	0x00000000	0.0
183	0x00000000	0.0
184	0x00000000	0.0
185	0x00000000	0.0
186	0x00000000	0.0
187	0x00000000	0.0
188	0x00000000	0.0
189	0x00000000	0.0
190	0x00000000	0.0
191	0x00000000	0.0
192	0x00000000	0.0
193	0x00000000	0.0
194	0x00000000	0.0
195	0x00000000	0.0
196	0x00000000	0.0
197	0x00000000	0.0
198	0x00000000	0.0
199	0x00000000	0.0
200	0x00000000	0.0
201	0x00000000	0.0
202	0x00000000	0.0
203	0x00000000	0.0
204	0x00000000	0.0
205	0x00000000	0.0
206	0x00000000	0.0
207	0x00000000	0.0
208	0x00000000	0.0
209	0x00000000	0.0
210	0x00000000	0.0
211	0x00000000	0.0
212	0x00000000	0.0
213	0x00000000	0.0
214	0x00000000	0.0
215	0x00000000	0.0
216	0x00000000	0.0
217	0x00000000	0.0
218	0x00000000	0.0
219	0x00000000	0.0
220	0x00000000	0.0
221	0x00000000	0.0
222	0x00000000	0.0
223	0x00000000	0.0
224	0x00000000	0.0
225	0x00000000	0.0
226	0x00000000	0.0
227	0x00000000	0.0
228	0x00000000	0.0
229	0x00000000	0.0
230	0x00000000	0.0
231	0x00000000	0.0
232	0x00000000	0.0
233	0x00000000	0.0
234	0x00000000	0.0
235	0x00000000	0.0
236	0x00000000	0.0
237	0x00000000	0.0
238	0x00000000	0.0
239	0x00000000	0.0
240	0x00000000	0.0
241	0x00000000	0.0
242	0x00000000	0.0
243	0x00000000	0.0
244	0x00000000	0.0
245	0x00000000	0.0
246	0x00000000	0.0
247	0x00000000	0.0
248	0x00000000	0.0
249	0x00000000	0.0
250	0x00000000	0.0
251	0x00000000	0.0
252	0x00000000	0.0
253	0x00000000	0.0
254	0x00000000	0.0
255	0x00000000	0.0
