results/robot_sumo_v2/RobotAgent.onnx (onnx, 290091 bytes, 9 tensors)

network_body.observation_encoder.processors.0.normalizer.running_mean f4 [18]
00000000: 4156 6f3d ef1c 3a3e 39ab 963b 4c8b dfbe
00000010: c13b 873d 0380 adba 0000 0000 81a8 61bb
00000020: 25ce 8a3e 4a1a bfb8 0000 fcad 193c 50b9
00000030: 673a abba 0000 0000 1802 61bb a0c9 8a3e
00000040: 014b 973d 4612 e73d
0.058431868 0.181751 0.004598048 -0.43660963 0.06603194 -0.0013237003 0.0 -0.0034432712
0.271104 -9.1124864e-05 -2.8649083e-11 -0.00019858814 -0.001306367 0.0 -0.0034333523 0.27106953
0.07387353 0.11282782

network_body._body_endoder.seq_layers.0.weight f4 [256, 18]
00000000: 8023 fa3d ed6f 9cbd 1c60 a43d b0fb 57bd
00000010: f7a5 04bd 33ca 0ebe cd02 603d 7066 b9be
00000020: 4208 d2ba f3aa a6bd 4130 773e 492c a1be
00000030: 4aad 663e cb9e 093e 261f 123e 574d c1be
00000040: 04f4 1c3e da0f 5dbe 6669 b73d c653 a33d
00000050: 2c7c 36be 059b 9e3e a603 5ebd 70f7 f7bc
00000060: ad5d b9bc f120 073e 5f43 503e d65b 38bf
00000070: 5b09 963e bbb5 e5b9 91fd 89be 9994 d5bd
00000080: ebf1 653e e327 88be df99 bbbd 8b88 81bd
00000090: b030 c4be f942 54bd 8fd6 84be 67d7 463c
000000a0: e685 983d e08f 183d a242 4fbc f7e0 793c
000000b0: 39a3 ddbe 2db8 eb3c fe76 f9bd 1533 123e
000000c0: d2f3 903d e465 a6bd d83c 883e ccdf c53e
000000d0: 95d7 153e fc3b 8c3e 91a4 90bd 6ef8 84bc
000000e0: 215c 873e 0db8 7b3e 4356 57be e2a7 c23d
000000f0: cbfa 16be f7c0 813e a9cf 103e 0e0d 663e
00000100: 3d0f 15be 4e7e 0dbe 554e 433e eb8b 6cbd
00000110: 80e2 c13e d2b9 e53d 0f3f 6ebe 0c3a 81be
00000120: ca52 cbbe f044 77bd 29be 3a3e 38a2 12be
00000130: 0f8d ad3e 47e7 c8bc e07b 96bc 22c7 3a3e
00000140: 98b6 4e3e e78a 833e 0b38 a2bd 53c7 093e
00000150: b72f a7be 34ed b1be 4c46 f63d 544c 5c3e
00000160: d539 0c3e b73e e4bd 565e b5bc 1fcd a4be
00000170: 9242 10bf 7217 773d c5ce 30be 4d56 e43d
00000180: 74da 563e baf7 833e d001 963d 9cf0 4cbe
00000190: cac3 3dbe 5ba4 873e 1f88 9dbe c8bb a93d
000001a0: 765e b73e ce2f 913d 9077 403e 8bb8 e4be
000001b0: 2023 893e e833 cb3b 71ad 7fbe bc60 fa3d
000001c0: 1714 443e 1dc4 9e3e 2b73 acbe a8a7 833d
000001d0: 7ba8 97bd dcf0 083d b849 bbbd 9e85 033d
000001e0: c8c3 06bd b218 cdbd be2a 82be 5093 8dbe
000001f0: 2881 8e3e 8975 f7bd 98d3 e43d f10f 3a3e
00000200: 4aa4 a43e 8fca 583e 20a1 963d d270 b0bd
00000210: 4865 82bd 2eaf b7be 6d86 0a3f 5295 383e
00000220: 1479 733e dec8 2f3e 95a6 bd3e da09 5a3e
00000230: 2716 3a3e f10e ca3e 985c 44be da02 9cbe
00000240: d53b f9bd 67a2 b2bc 2091 01bd d5a9 883b
00000250: 147d ac3e d727 33bc aef1 d83d 3a4e a3be
00000260: 4463 113e 150c 013e 5d0e 81be 1bb9 edbe
00000270: 09e5 07be 0b1f 78be e2a3 b63d 9a59 853d
00000280: ee59 5dbe 7b5f 273e abf7 2d3d c826 c93e
00000290: 4753 39be a1ed 8c3e 4fe4 793d 089b 543e
000002a0: 2baa c8bd 48ce 57bd 0592 e23e 5df1 1abd
000002b0: 6c45 04bf ae50 273f d9d3 7abd aad9 5b3e
000002c0: 5db6 1c3c bbbd aabe df27 45be 5885 aa3e
000002d0: 5d63 e73e 24e0 b7bc df79 d0bc 5a35 523e
000002e0: ed65 223e fa7b 24bd 3051 833d a9ff 5fbe
000002f0: bde5 8dbe e6fd 453e 703f 4fbe 8761 e6be
00000300: 189d afbd 0b06 18be 6275 86be c5a4 403c
00000310: 38e1 85be 10f8 6e3d ae69 cebe b3e3 0d3f
00000320: 9dcf 5e3e b643 59be 3ddf 67bd 95ba ab3c
00000330: a339 bc3d 2282 19be af29 3c3e 1aab e3be
00000340: c487 03be 5a19 24bf a6fe 11bd 3af7 75be
00000350: 8471 1bbe 142f 143e dedd 8dbe 71fa e23e
00000360: bf16 483e 2006 f5bd 3476 7f3e f248 34bd
00000370: ac98 ce3e 6c1a f9be 3204 2b3e 047b ef3d
00000380: 4c27 86be 1336 f43d e733 a63d 7212 be3e
00000390: c67a b93e a52b 8e3e 39b3 87be 9bf2 d43d
000003a0: c847 adbe 91af da3e e356 2b3e 5258 ff3e
000003b0: 658d 8b3e 9890 77be c68e 463e 58f0 7b3e
000003c0: 1bdc 513e 47f7 36be 6b9f dbbd cc94 1a3d
000003d0: 0084 0a3e f00c abbd a4d9 573e becc b93e
000003e0: 3813 07bb 5ee9 833e 70bc 473e 88ab 083f
000003f0: 7938 81be 6e11 a23d 0817 b9be f09b 053f
0.12213802 -0.07638536 0.08026144 -0.052730262 -0.03238484 -0.1394432 0.05469017 -0.36210966
-0.001602419 -0.08138075 0.24139501 -0.314791 0.22527042 0.13439481 0.14269695 -0.37754318
0.1532746 -0.21588078 0.0895565 0.07974963 -0.17820805 0.30977646 -0.0542027 -0.030269355
-0.022627676 0.1319616 0.203382 -0.7201513 0.29304013 -0.00043813683 -0.26951268 -0.104287334
0.22455566 -0.2659293 -0.09160208 -0.06324872 -0.38318396 -0.051821683 -0.25944945 0.012136317
0.07447414 0.037246585 -0.012650164 0.01525139 -0.43288592 0.028774345 -0.12180899 0.14277299
0.07077755 -0.08124903 0.2660892 0.38647306 0.1463302 0.27389514 -0.070626386 -0.016231742
0.26437476 0.24581929 -0.21029 0.09504677 -0.14744107 0.25342533 0.14141716 0.22465917
-0.14556594 -0.13817713 0.1907285 -0.057750624 0.37868118 0.11217083 -0.23266242 -0.252396
-0.397116 -0.06036848 0.18236603 -0.14319694 0.33896682 -0.024524344 -0.018369615 0.18240026
0.20186841 0.25691912 -0.079208456 0.13454942 -0.3265359 -0.34751284 0.12025127 0.21513492
0.13693936 -0.111447744 -0.02213971 -0.32187745 -0.5635158 0.060325094 -0.17266376 0.11149273
0.20981771 0.25774938 0.073245645 -0.2001366 -0.18531719 0.2649258 -0.30767915 0.082877696
0.35814255 0.07089196 0.1879561 -0.44672045 0.2678461 0.006201256 -0.24968506 0.12225482
0.19148289 0.31008998 -0.33681616 0.06428462 -0.07405182 0.033432826 -0.0914492 0.03210985
-0.032901555 -0.10014476 -0.25423235 -0.27651453 0.27832913 -0.12082965 0.11173171 0.18170144
0.32156593 0.2117102 0.07354951 -0.08615269 -0.06366974 -0.3587584 0.5411137 0.18025711
0.23776656 0.17166469 0.37041155 0.2129282 0.18172513 0.39464524 -0.19175947 -0.30470926
-0.12169615 -0.021805955 -0.031632543 0.004170636 0.33689177 -0.0109347915 0.10592972 -0.3189562
0.14198023 0.12602265 -0.2520627 -0.46430287 -0.13270964 -0.24230592 0.08917977 0.06511231
-0.21616337 0.16345017 0.042472523 0.392874 -0.18098174 0.27525046 0.061008748 0.20762265
-0.09798082 -0.05268696 0.4425203 -0.03782784 -0.5166843 0.6535748 -0.06123719 0.21469751
0.009564963 -0.33347878 -0.19253491 0.33304858 0.45192996 -0.022445746 -0.025448738 0.20528165
0.15859194 -0.040157296 0.0641197 -0.2187487 -0.2771434 0.19335136 -0.20239043 -0.44996282
-0.08574885 -0.14846055 -0.2626143 0.011758034 -0.2614839 0.05834204 -0.40315002 0.55425566
0.21758886 -0.21217236 -0.05660938 0.020962993 0.09190681 -0.14991048 0.18375276 -0.44466478
-0.12844759 -0.64101183 -0.035643242 -0.2402009 -0.15180022 0.14471084 -0.27708334 0.44331697
0.19539927 -0.11964059 0.24947435 -0.04401488 0.40350854 -0.4865297 0.16700819 0.11693385
-0.26201856 0.11924376 0.08115368 0.37123448 0.3622648 0.27767673 -0.26503924 0.10397836
-0.33843827 0.42712072 0.16732363 0.4987207 0.27256313 -0.24176252 0.19390401 0.24603403
0.2049412 -0.17867766 -0.10723766 0.03773956 0.13526917 -0.08352077 0.21079117 0.36289018
-0.002061082 0.25763983 0.19505477 0.53386736 -0.25238398 0.07913481 -0.36150384 0.52191067

network_body._body_endoder.seq_layers.0.bias f4 [256]
00000000: b73f 92bc a410 213c a7e4 ebbb 0432 8b3b
00000010: c050 673c 4728 ad3c 85ec 92ba 5f99 823b
00000020: f3e1 b13c 868f 333d a3d7 523c af7e 8ebb
00000030: 45b3 9bbc 6016 863c 3f3f 863c 7f59 2fbc
00000040: 63c3 4dbb a609 6cbc 0475 923b 6278 f83b
00000050: be03 e4bb 0ef1 653c b55f 1e3c bce0 4b3b
00000060: 9f7a db3c ae19 0ebd 3b8b 36bd 4771 c23c
00000070: 80e1 3ebc a316 043d ad33 103b 2618 bdbc
00000080: 01ff 913b f7fe 813c cbb4 26bc 94dc 9fbc
00000090: c3ae 6abc 49f1 c73c 770e e53b 6a69 69bc
000000a0: fbe2 d7bc c93f 19bc 60ea 80bc 9652 90bc
000000b0: 3496 95bc 083e 673c c83f 213c 54a0 873c
000000c0: 1063 223d e0c5 0dba 6714 a93c 129b 193d
000000d0: eede 9a3c d30d 32bc 6607 26bc 8736 ac3c
000000e0: 7055 f13c b448 5fbc 9d1e dabb c9eb 35bc
000000f0: c8be c83b d882 1f3d fcfb 643c 02a4 04bc
00000100: 0f93 3d3c 0702 e0bc 0eb0 0bbb 7008 88bc
00000110: 4f3c 2d3c 54a4 333b 36ea 3a3c 2ed5 90bc
00000120: 958b a3ba 120e 2d3b 8ba0 c6bc 4d97 6d3c
00000130: 078d ea3c 199b bebc 30c3 7abc cdb9 183c
00000140: e0ff 1f3d e6fc 08bc eb2c c73c e803 82bc
00000150: 8610 0e3c 6795 7b3a 101f 30bc de5d e9bb
00000160: e40b b33c f101 c83c 5c0c ff3c ce9b f53c
00000170: 5575 38bc 98f4 9a3b 14aa a039 5d11 3ebc
00000180: a4aa 543c 5bb1 d83c 76b1 c33c 7149 07bc
00000190: a765 d1bc 4cae da3b 3398 023c b3a4 88bc
000001a0: 59b8 1e3d 0257 c6bb 3223 103c 16cc d43c
000001b0: 684a 83bc ba0e 1d3c da06 773c 57a6 b3bc
000001c0: 5acc 52bb 23f4 7c3c e81b 5fb9 6fd6 7a3c
000001d0: cc6a 873c 642c 893c bcec 2e3c edeb 533c
000001e0: 0a11 e13a 97eb 623c 754e ae3c 3892 fbbb
000001f0: a813 913c 7080 95bc 9dc4 8fbc 2c80 433c
00000200: e937 243c c980 383c b5a5 1abb b7c2 333c
00000210: 01b7 a23c feb1 aebc e3ff 843b 30ce e13c
00000220: 4a92 a33b 74dc 9e3c 006a 45bb 5895 533c
00000230: a0ff f33c 621a 9b3b fd12 53bc 1258 6abc
00000240: 2cba c33b 0552 2abd d759 cfbc fcfe 243c
00000250: 4e3e a43b 6360 903c 337c 9bbb bbb8 1dbc
00000260: 7283 fa3b cc8f 74bb a1ad 6d3c ea3b 0a3c
00000270: a434 0d3c ca9c 153d 9df9 29bc 4fe5 693c
00000280: 8741 5dbc 1d25 b73b 229a 53bc 59b8 4abc
00000290: 903e eb3c 2d0d 9dbc df86 c2bb ffd6 1dbc
000002a0: b848 793b c8d9 d63c 345f 6b3c 7986 3ebc
000002b0: b5b5 fe3c e49a fcbb 9c40 d9ba bcbe d1bb
000002c0: ed17 dcbc 8cdf 953c e9e6 b1bc 380b d33c
000002d0: c6b4 84bc 152b 903c 18c9 76ba 3f66 a2bc
000002e0: f543 55bb 5ae3 f23c ed74 01bd be88 ab3a
000002f0: 6597 bdbb 74b0 063c 63cb 9fbc 8197 1f3d
00000300: ea8a 4c3c 57b8 b939 08da 3e3c b644 06bc
00000310: bc13 d83c 875a b43c b1d5 18bc 07c6 a1bc
00000320: 7d78 c73c f463 bb3b befe 333c feae 693c
00000330: 2184 b33b 5344 7dbc 13e7 953c a3e8 923c
00000340: b764 d33c 58eb 38bc 1885 933c e3d8 093c
00000350: de82 133d 76df 0c3a 6e31 453d 20c7 f13b
00000360: 571a f1ba 4c20 103c 94e0 9c3c e310 e9bb
00000370: d109 70bb 5ee9 313c caf4 0f3b d5eb 573c
00000380: 07fc 7e3c edde 083b 0435 01bd 22d3 cb3b
00000390: edb7 df3c f111 7fbc 551e f3bb 2047 df3c
000003a0: afac 913c 7db4 fd39 e062 d2bb 4f3a db3b
000003b0: a4b1 87bb 91a5 debc e903 91bc a43a a83c
000003c0: 861c cb3c 53a9 033d 0975 a1bc 299e 00bd
000003d0: b2a1 ae3c 560f a6bc 39b8 28bc 77f0 61bb
000003e0: 4188 a83c 0589 6d3c e313 39bb bee4 8bbb
000003f0: 8e4d c03c 56e8 113d 81e9 853b 4c8a 673b
-0.017852647 0.009830628 -0.0071988883 0.0042479057 0.014118373 0.02113737 -0.0011209404 0.0039855684
0.021714186 0.043838046 0.012868795 -0.004348598 -0.01900638 0.016368091 0.01638758 -0.01070249
-0.0031396977 -0.014406597 0.0044695158 0.00758271 -0.006958454 0.014034523 0.009666373 0.0031109294
0.026791869 -0.03469246 -0.044566374 0.023735655 -0.011650443 0.03224815 0.0022003457 -0.023082804
0.0044554477 0.015868647 -0.01017494 -0.01951436 -0.014323893 0.024407046 0.0069902497 -0.014246324
-0.02635335 -0.0093535865 -0.015736759 -0.017617505 -0.018260099 0.0141139105 0.009841867 0.016555943
0.039645255 -0.0005408209 0.020639611 0.037501402 0.01890513 -0.010867554 -0.0101336 0.021022094
0.029459685 -0.013628174 -0.0066564814 -0.011103579 0.0061262585 0.03894314 0.013976093 -0.008095743
0.011570706 -0.027344717 -0.0021314654 -0.016605586 0.010573461 0.002741118 0.011408379 -0.017679777
-0.0012477512 0.0026406092 -0.024246475 0.014501405 0.0286317 -0.023267316 -0.015305325 0.009321642
0.03906238 -0.008361077 0.02431341 -0.015871003 0.008670932 0.0009597153 -0.010749593 -0.0071217855
0.021856256 0.024414988 0.031133823 0.02998152 -0.011258443 0.004728865 0.00030644296 -0.011600819
0.012980137 0.026451757 0.02388833 -0.008257256 -0.025561167 0.00667361 0.007970857 -0.016680097
0.038750026 -0.0060528526 0.008797454 0.025976222 -0.01602669 0.009586031 0.015077317 -0.021929903
-0.003216526 0.015439066 -0.00021277333 0.015309914 0.016530417 0.0167448 0.010676559 0.012934667
0.0017171216 0.013850114 0.021277646 -0.0076773427 0.017709568 -0.01824972 -0.017549807 0.011932414
0.010023096 0.0112611735 -0.0023597304 0.010971717 0.019862654 -0.021325108 0.0040588244 0.027564138
0.0049918042 0.01939223 -0.0030122995 0.012914024 0.029784977 0.0047333697 -0.012882945 -0.014303224
0.005973121 -0.041582126 -0.025311394 0.010070559 0.00501231 0.017624086 -0.0047450303 -0.009626563
0.007645064 -0.0037317155 0.014506728 0.008437136 0.0086185075 0.03652648 -0.010374454 0.014275863
-0.0135043925 0.005589141 -0.012915166 -0.0123730535 0.028716356 -0.019171322 -0.005936488 -0.009633779
0.0038037729 0.026226893 0.01436596 -0.0116287405 0.031092504 -0.007708894 -0.0016575041 -0.006400911
-0.026866877 0.018295072 -0.021716552 0.025762185 -0.01619948 0.017598668 -0.00094141206 -0.019824145
-0.0032541726 0.029649425 -0.03160565 0.0013087017 -0.00578587 0.008220781 -0.019506162 0.038962845
0.012484292 0.00035423294 0.011648662 -0.008195093 0.026376598 0.022015823 -0.009328292 -0.019747747
0.024349445 0.0057187025 0.010986028 0.014262913 0.0054783975 -0.015458184 0.018298661 0.017933195
0.02580486 -0.011286579 0.0180078 0.008413526 0.036013477 0.00053738744 0.048142843 0.007378474
-0.0018394691 0.008796763 0.019150056 -0.0071126088 -0.0036626945 0.010858862 0.0021965974 0.013178785
0.015563018 0.0020884827 -0.0315447 0.0062202374 0.027309382 -0.015568242 -0.0074193873 0.027255595
0.017782537 0.00048390395 -0.006420478 0.0066903005 -0.0041410495 -0.027178558 -0.01770206 0.020535775
0.024793874 0.032143902 -0.019709127 -0.031400833 0.021317337 -0.020270985 -0.010297828 -0.0034475604
0.020572783 0.014498 -0.0028240613 -0.0042692116 0.023474481 0.035621963 0.0040866737 0.0035330234

network_body._body_endoder.seq_layers.2.weight f4 [256, 256]
00000000: 4492 313c 907c e5bd a8ea b4bc fee3 853d
00000010: 7fc9 d93d 1f50 7dbd a43a 9c3d b00a e73c
00000020: 0d87 943d a3f8 94bc fa02 8d3a 15a9 f43d
00000030: 73b5 0a3c 60e5 a5bd 7627 963d 9498 153d
00000040: fadb 4abd 3b17 79bd 7b95 eebc 1f55 bc3a
00000050: 5222 abbd 61b4 ce3d ccd2 733d e544 69bd
00000060: 8a39 2a3d f52c 39bd 2f7d eabb a9ac 6dbd
00000070: 88a9 1abd dfd8 363d 9229 893c 1737 1fbe
00000080: 4156 ec3c caf1 473d 589b ccbd 5544 35bd
00000090: 8727 b73d 5a6b 90bd f03f 5e3d de48 8abd
000000a0: 5d53 b8bd b2e8 50bc b910 8e3c 4440 9e3d
000000b0: 5002 bfbc 3fd6 4d3d b381 be3c 82b3 9ebd
000000c0: 3541 a13c d51c 663c 5f46 333d 40ee 52ba
000000d0: 9e5f 6fbd 8fc0 073d 84cb 1abd 2420 d6bc
000000e0: fb72 8eba d3ed 3c3d 7738 04be cc92 8fbc
000000f0: a9e9 2cbd 2b6f a93d 7a0d 81bc dae6 49bd
00000100: a2f9 883c e45b 643c 60c7 7d3b 0c73 59bd
00000110: 59b8 3e3c d71a 153d 23e3 1fbd 579b 823c
00000120: 6696 963d 8b9e a7bd e941 7bbd a592 133d
00000130: ea41 fc3d 4396 6ebd 33f6 d83c 9ee3 e63a
00000140: 3f70 8d3d a217 9cbb 8bc2 dcbd 73a2 8cbd
00000150: 3065 a6bd 5445 ea3d 5899 c4bc 7d7a a3bc
00000160: a95d a13b 119d 5bbd cfc8 203d 1955 0f3c
00000170: 2952 b9bd 1cb4 8f3b f1cf 93bd b757 ce3a
00000180: d723 ddbd df82 30bd f364 a0bc 8146 63bd
00000190: 5da2 68bd 80c4 8ebc 0faf 3fbd a784 f93c
000001a0: 8bde 823d 809d 20bd a36c 82bc 469a 833b
000001b0: a3c6 a2bd 83ad 8e3d a9bf 183c 34a3 ddbd
000001c0: d46a 51bd 47ad fc3d 7d1a acbd 5fee 733d
000001d0: c7ee cb3c 2213 26be 4370 ad3d 064a 2f3c
000001e0: 9cea 673d dab9 083e 1e39 cdbc 26d6 32be
000001f0: 76cc a33d 26df 2ebd 861e 6fbd 70e4 c6ba
00000200: 1093 fcbd 06de 113e e674 c5bd be3f acbb
00000210: 5244 1f3d e8b0 2d3a 234e 9cbc ec15 02bd
00000220: 2cff 9cbd 6be8 a73d 5614 bebd d65d d1bd
00000230: 40bd d13d 3bb3 dd3c 88f0 20be 539f 0fbe
00000240: b20d e63d 5c3b c1bd a90d 6c3b 4a95 173a
00000250: bf9d 10bd 8fcc 52bd 9529 02bd f984 e8bd
00000260: 6f47 6e3d 05e9 b1bb 0821 3b3d 3708 f5bc
00000270: 8f7c e63d a1d2 64bc fa15 a33b 4556 7a3c
00000280: a12f bf3d a5b4 3c3d 36ce cebc 3097 3cbd
00000290: 3420 0bbe ecf9 96bd aaaa 2bbd 4c59 d93b
000002a0: a527 e13d ce47 71bd 0e3e 2b3d e70d 7b3c
000002b0: 6aee fcbb 45c7 2abc 0810 2dbc 65f1 25bd
000002c0: 0d62 05bd 97c0 7bbd 6e82 eabd 66b3 a4bd
000002d0: 2b60 e8bb 6b48 0fbd 912a bf3c 1ba0 bfbc
000002e0: e253 2ebe dff4 00be c892 52bd 97ce 8a3c
000002f0: c624 323c f128 d13c 006c 9f3c e242 18be
00000300: deb8 b63d 6612 ca3d 87be 00bd 07ab 4ebc
00000310: deda 933d 1146 a6b9 ccdb 293c 2f96 0d3d
00000320: a4eb fb3c 7821 3b3d 3070 08bd 097a dc3d
00000330: 0af7 de3b 945a 2b3d 2e71 cebc 8f84 30bb
00000340: 33e5 54bd 62a1 393a 917a 7ebd ab81 823d
00000350: ab15 a73d 8058 853d 4a2d 5ebe 9f03 8e3d
00000360: e31e 26be d0fb 963d 3ab1 683e a50c 803d
00000370: 78a2 27be a766 3d3d a9e3 433c 2915 7f3d
00000380: 55c1 6bbd 8cef 9eba c9e7 9a3d 1528 9d3c
00000390: 94b8 77bd f643 fcbc e672 483d 4916 163e
000003a0: 0033 483d f330 d7bc ea36 e53b a039 023e
000003b0: 9007 a7bb ec49 053c 1ec6 ca3c 794c 3f3d
000003c0: ba18 72bc cc4c 21be 8b6b 863c c09f 93bc
000003d0: 95ca 813d 6975 a3bd 052b 163d be8d c43c
000003e0: f4a7 5a3d 7ab4 bbbd 2e09 9a3b 2df3 f9bd
000003f0: 28ed b73c 0279 2cbd 9e61 39bd cd90 403d
0.010838095 -0.11205399 -0.02208455 0.06537627 0.106341355 -0.061843988 0.07628372 0.028203338
0.072523214 -0.018184965 0.0010758333 0.11946312 0.008466112 -0.081003904 0.07331745 0.036522463
-0.049526192 -0.06081317 -0.029124012 0.001436863 -0.083561555 0.10092998 0.059527203 -0.05695047
0.04155878 -0.04520889 -0.0071560363 -0.05802599 -0.037759334 0.04464042 0.016743455 -0.15548359
0.028849723 0.048814572 -0.09990567 -0.04425462 0.08943086 -0.07051726 0.054260194 -0.067521796
-0.09000275 -0.012750791 0.017341958 0.077271014 -0.023316532 0.05025315 0.023255205 -0.07749082
0.019684413 0.01404496 0.043768283 -0.0008046366 -0.058440797 0.033142623 -0.037791744 -0.026138373
-0.0010868007 0.046125244 -0.12912165 -0.017526053 -0.042215023 0.08273157 -0.015753496 -0.049292423
0.016720597 0.013937924 0.0038723573 -0.053088233 0.011640632 0.03640255 -0.039034974 0.015943212
0.07352905 -0.081845365 -0.061342154 0.036028523 0.123172596 -0.05824877 0.026484584 0.0017615443
0.06906175 -0.0047635594 -0.107792936 -0.06866922 -0.08124769 0.114390045 -0.023998901 -0.019955868
0.0049244952 -0.053616587 0.039254006 0.008748316 -0.09048874 0.0043854844 -0.07217396 0.0015742694
-0.107978515 -0.04309356 -0.019579386 -0.05548716 -0.056795467 -0.017427683 -0.04679781 0.030458761
0.06390103 -0.039212704 -0.015920943 0.0040161936 -0.07948043 0.069666885 0.009323039 -0.10822144
-0.05112727 0.123377375 -0.0840349 0.0595535 0.024894131 -0.16218236 0.08468678 0.010698801
0.056620225 0.13352147 -0.02505165 -0.17464504 0.07997982 -0.04269328 -0.05837872 -0.0015174281
-0.123327374 0.14244851 -0.09641437 -0.005256622 0.038883515 0.00066257874 -0.019080227 -0.031759188
-0.07665858 0.08198627 -0.092812225 -0.10222976 0.10241175 0.027063003 -0.15716755 -0.14025621
0.11233081 -0.0943515 0.0036018884 0.00057824387 -0.03530669 -0.051464614 -0.031777937 -0.113534875
0.058173593 -0.0054293894 0.045685798 -0.029911144 0.112542264 -0.0139662335 0.004976985 0.015279357
0.09335256 0.046070714 -0.025244813 -0.04604262 -0.13586503 -0.073718876 -0.041910805 0.0066329595
0.1099389 -0.05890637 0.041807227 0.015323139 -0.007718851 -0.010423486 -0.010562904 -0.040513415
-0.03256421 -0.061462965 -0.11450659 -0.0804203 -0.0070915422 -0.034981173 0.023335727 -0.023391774
-0.17024186 -0.12593411 -0.051409513 0.016944213 0.010873025 0.025532218 0.019460678 -0.14869264
0.08921979 0.098667905 -0.0314317 -0.012614018 0.0721948 -0.0003171419 0.010367345 0.034567054
0.03075201 0.045686215 -0.033310115 0.10765464 0.0068043517 0.04183443 -0.025200453 -0.002693448
-0.051976394 0.0007081238 -0.062128607 0.063723885 0.0815843 0.06511021 -0.21696964 0.069342844
-0.1622272 0.07372248 0.22723857 0.06252412 -0.1637057 0.046240475 0.011956134 0.06227604
-0.057557423 -0.0012125834 0.07563741 0.019184152 -0.06047876 -0.030794125 0.0489377 0.14656939
0.048876762 -0.026268458 0.0069950717 0.12717295 -0.005097337 0.0081353 0.024752673 0.04670379
-0.014776403 -0.15751952 0.016408702 -0.01802051 0.063374676 -0.079813786 0.03666212 0.02399337
0.05338283 -0.091652825 0.0047008013 -0.12204585 0.022451952 -0.04210759 -0.04525911 0.047013093

network_body._body_endoder.seq_layers.2.bias f4 [256]
00000000: ec2b 943c c443 b53b b892 20bc cba4 413b
00000010: 7a21 c7bb 863a 9bbb 9d31 803b a0d4 49bc
00000020: 9ca3 003c 3ec9 33bc b323 e2ba d6fb df3c
00000030: 1e81 cf39 193e 913c fdbb 63bc e67d 273c
00000040: ad8c 46bc 3690 e83b 34f6 313c 1dc3 a83c
00000050: 2c3b cf3b 580a 813b 71d6 57bc c992 843c
00000060: 240d f6bc 32ef ff3b 5d84 7e3c 6808 1f3c
00000070: a10f f43b 568e 8e3c ca73 26bb 0e96 8e3c
00000080: a4db 8b3c 1092 333c 7344 533c 1de0 953c
00000090: c636 953c b4b0 123d 8c74 f9bb a3fe be3c
000000a0: 14ee 003d b556 a0bc 30c8 90b8 a3a8 99bc
000000b0: 42f5 6f3c 52cf f238 02cb c5bb 4cbb d03c
000000c0: 3d03 c3bc 5f3a 90bb 987b 833b a6d6 12bc
000000d0: 875d 8f3c af5c 013c 6e04 883c 012a 09bc
000000e0: 6a43 49bc 9786 8ebc 314c 003c aaff 80bc
000000f0: 8cec 4a3b 396b 57bb 1450 cebb 1466 b73c
00000100: 12ba b33c aa90 923c 01e5 e2bb d916 b6bc
00000110: 6c37 57bc f175 2abc eec4 263c f52a 50bb
00000120: c7d5 663c 7af7 913c 90ee ce3c 76e7 b93b
00000130: 8e51 c53c ba5b 433c a894 e23b 5f0d 6dbc
00000140: 2c7a 63bc 5d7c 14bc 40ff 163c 932d 533c
00000150: e9bd 7fbb 64ed f1ba b386 7e3c dd1a 933c
00000160: 3b03 6d3b 9bdf 7a3c 10cf 27bc d51f c3bb
00000170: 4fa0 f73b e405 8f3c 6e8b 143d 9cea f9b9
00000180: 0560 c0bb 0a60 0a3d bc65 863c 509a c23a
00000190: d4aa 70bb cfec b53c 1872 0a3d 2e41 ea3c
000001a0: 658f 283c e65c 98bb 5384 bcbb 685e 043d
000001b0: 8faf 633c b043 9bbc 726c 0fbc 766c 003b
000001c0: 331f cd3b 0993 fcba eebe 8bba 8603 d8bb
000001d0: 299d 4a3c 2c8f eaba 1815 7e3b 8d38 91bb
000001e0: 4922 a83b 4578 14ba f65b cb3b fbe5 a73c
000001f0: b129 913c a470 383b f237 beba 46ba cf3b
00000200: 2093 e23c 4313 da3c 48fd 823b a379 0f3c
00000210: 1343 093d c229 773c caff 8c3c f086 6a3c
00000220: 2183 b1bb 5d8b b23b d8dd 95ba 9fe1 72bc
00000230: 7fc5 37bc 50fa 3a3c bfa9 0fbc 99ea 723b
00000240: 0d1a f4bb 1e7a adb9 96e2 1b3c f0f5 ae3b
00000250: 0e5e 8d3a 69c5 63ba 152f 073c 1aa1 8cbc
00000260: e378 93bc 85ab 41bb 069e c03b 892a bd3c
00000270: c714 383c 3fdb 873c 5260 483c d202 503c
00000280: 5744 923c 2a68 00bb 1d9c 393c 79f2 66bc
00000290: af22 653c ca34 593c a416 323b 058f 7d3c
000002a0: 6b80 c83c baf5 103d ce22 bbbb 0c3d cc3b
000002b0: 8be8 88bb c1ed 12bc 0907 733c d6df b0bb
000002c0: 86e4 1e3d 2f37 e7bc 1276 4e3c 53a2 9c3a
000002d0: f453 153a 2927 e0bb fa4a cc3a 4317 d63c
000002e0: d379 703c 1b27 093c 6b66 303b 33eb f7ba
000002f0: 6f53 89bc b6cd 163b 8d9b 193c 553b a43c
00000300: d5c3 043d 8efd d73b fe36 303c 4a46 c7b8
00000310: 2184 adbb 9822 b53b cf91 683c 5058 7ebb
00000320: 1c88 51ba a8de 69bb 44b6 9bbb a73a 28bc
00000330: 287a 71bc ce19 983b 406d b03b d532 873c
00000340: c5a4 75bc 816e eaba df94 e03c 56f6 c83c
00000350: f2c7 70bc 6ea6 eb3b bd6a 22bc 1853 403c
00000360: bbd2 3bbb 234e b13c fb75 ab3c 6351 703c
00000370: 7a30 843c ea6c 81bc 1508 84bc 487f 07bc
00000380: d15b d73c 8da0 5a3c 1d9e ac3c d063 253c
00000390: 8d2a 3c3a 62e0 343c 899b ba3b 11c9 ae3c
000003a0: d5ab babc 6f65 49bc 8676 133c 420c 893b
000003b0: 0a0f 3d3c 3e7e bdb9 5ea3 09bc 8b1e 2d3d
000003c0: 23d6 feb9 29df 853c 9bd6 7a3c 8d16 58bc
000003d0: 405f 9c3c 3094 0d3c 131c 653c a2eb 4ebc
000003e0: 4516 803c 23fe c8ba bd51 8e3b 6751 cd3b
000003f0: d5fa 9f3c abba acba 25a4 8a3b 463c f83b
0.01808735 0.00553176 -0.0098006055 0.0029547687 -0.0060769888 -0.004737201 0.0039121644 -0.01231876
0.0078515075 -0.010973273 -0.0017253071 0.027341764 0.00039578317 0.017729806 -0.0138998 0.010222888
-0.012118501 0.0070972694 0.010861922 0.02060085 0.0063241925 0.0039380006 -0.013173685 0.016183274
-0.030035563 0.0078104967 0.015534488 0.009706594 0.007448152 0.017401855 -0.0025398606 0.017405536
0.017072506 0.010960117 0.0128947375 0.018295342 0.018214595 0.03581305 -0.0076127704 0.02331478
0.03147705 -0.019572595 -6.903743e-05 -0.01875717 0.014645876 0.00011578076 -0.0060361633 0.025479935
-0.023805255 -0.0044014896 0.0040125363 -0.008962309 0.017500652 0.007895633 0.016603675 -0.008371831
-0.012284139 -0.017398162 0.007830665 -0.01574691 0.0030963747 -0.0032870306 -0.006296167 0.022387542
0.021939311 0.017891247 -0.006924272 -0.022227691 -0.013135772 -0.010404096 0.010178788 -0.0031763886
0.014089054 0.017818201 0.02526024 0.0056733442 0.02408674 0.011923725 0.006914694 -0.01446852
-0.0138841085 -0.009062854 0.00921613 0.012889284 -0.0039023107 -0.0018457589 0.0155350445 0.017957145
0.0036165256 0.015312101 -0.010242239 -0.0059547224 0.007556952 0.017458864 0.036265783 -0.0004766778
-0.0058708214 0.033782996 0.016405933 0.0014847014 -0.0036722915 0.022207646 0.033800215 0.028595533
0.010288094 -0.004649746 -0.005753079 0.032316595 0.013896837 -0.018953174 -0.008753883 0.0019595898
0.0062598228 -0.0019269894 -0.001066176 -0.006592217 0.012366571 -0.0017895452 0.0038769897 -0.00443179
0.0051310402 -0.00056636735 0.006206031 0.020495405 0.017720075 0.002814331 -0.0014512523 0.006339344
0.027658045 0.026620513 0.0039974786 0.008757028 0.033511233 0.015085639 0.017211813 0.014314398
-0.005417243 0.0054487423 -0.0011433912 -0.0148243 -0.01121652 0.011412218 -0.008768498 0.00370661
-0.0074493946 -0.00033088116 0.0095144715 0.0053393766 0.0010785477 -0.0008688779 0.008250971 -0.017166663
-0.01800198 -0.0029551696 0.005878213 0.023091571 0.011235422 0.016584037 0.012229996 0.012695985
0.017854853 -0.0019593337 0.011328724 -0.014095896 0.01398532 0.013257215 0.002717414 0.015475993
0.024475297 0.035390593 -0.005710936 0.0062328633 -0.004178112 -0.008967818 0.01483322 -0.005397777
0.038792156 -0.028224556 0.012601392 0.0011950232 0.0005696409 -0.0068406058 0.001558631 0.026134139
0.014677483 0.00837114 0.0026916515 -0.0018914699 -0.016763417 0.0023010797 0.009375465 0.020047823
0.032413322 0.0065915054 0.010755299 -9.502152e-05 -0.005295292 0.0055278055 0.01419492 -0.0038809963
-0.0007992999 -0.0035685692 -0.0047519524 -0.01026789 -0.014738597 0.004641748 0.0053841174 0.01650373
-0.014992897 -0.0017885716 0.027414737 0.024531525 -0.014696108 0.007191471 -0.009913144 0.011738561
-0.002865954 0.021643704 0.02093028 0.014667842 0.016136397 -0.015799005 -0.016117135 -0.008270092
0.026288899 0.013343942 0.021071488 0.010094598 0.00071779714 0.011039825 0.0056948108 0.02133611
-0.022787014 -0.01229225 0.009000426 0.0041823694 0.01153923 -0.00036142947 -0.008400766 0.042265456
-0.000486062 0.016341763 0.015309955 -0.01318897 0.019088387 0.008641288 0.013983744 -0.012629421
0.015635619 -0.0015334528 0.00434324 0.0062658074 0.019528786 -0.001317819 0.0042309933 0.0075755445

action_model._continuous_distribution.log_sigma f4 [1, 2]
00000000: a2aa 27be 1fe2 eb3c
-0.16373685 0.028794346

action_model._continuous_distribution.mu.weight f4 [2, 256]
00000000: 72ff 8e3d 3547 633d 0e3a 80bd 55bc 523c
00000010: 0b00 dfbc d6a6 d5bc 40e2 5abd 3784 01bd
00000020: 22b0 4b3d faeb 8f3a 7f36 af3b a3b4 553d
00000030: c8c1 5d3d 2a8f 6c3d 5442 ebbc 7a99 883c
00000040: fc91 97bd f63d 453c 0b90 003c 6244 2d3d
00000050: d98f bc3b e5f1 f2ba 645b 66bc 43c9 103c
00000060: 07c6 3fbc 0788 50bd 90c0 d73c 2a46 f5bc
00000070: 8c60 7abd 3e32 0fbc 66e5 543c 46ae 913d
00000080: 3bf7 8ebb 458a 743c a167 9c3c 55a1 0d3d
00000090: b8e8 0c3d 74c1 343d 7001 a2bc 0cc6 753d
000000a0: 3837 403d 0a29 1fbd 483a 21bd 6e0d 5dbb
000000b0: 0f99 703d f95c a53c f99f b2bc 2d44 583d
000000c0: 36ca afbc 6f85 e3bc 375b b53b 5dbc 4a3c
000000d0: 0859 253d fb6d c23c 0d2d 853c f88c 05bd
000000e0: 684b c9bc d3a9 0cbd d4ef 553c f4e6 1bbd
000000f0: 0c02 0dbd 7162 2c3c 708c 1b3b 100d 1f3d
00000100: e12a f23c 389c 263d 6914 07bd f999 41bc
00000110: 6e7c 03bb baab 69bc 48c5 f6bc a9b8 593c
00000120: b1e6 263d a2de 6a3d 7194 c1bb ebfb 003d
00000130: b981 f83c e756 17bd 1d31 ce3c 1846 2aba
00000140: 485e 24bd 3962 dfbb defa 5abd 245e 60bd
00000150: fd90 9a3b e16e 31bb 01cd f83b 787a 363d
00000160: 0a76 893c 5fbe b2bd 5caa 0b3c 2e66 87bd
00000170: 88b8 1dbd 4618 3e3d 7d18 ffbc 5594 1fbc
00000180: 65f8 7cbd 1abf 173d ebba eabc 3061 b43c
00000190: bccc cabb 35fa 8039 7d99 123d 0625 1c3d
000001a0: 6c6b 52bb 6380 a7bc ec56 153c 6daf 963d
000001b0: 737b 693d 1e1d 17bc 654e e43b ca58 8cbd
000001c0: 9814 263c 2220 6cbd 5608 e73a 5e31 14b9
000001d0: e0f6 353d 93cd 5dbd f2b8 2abc d547 04bd
000001e0: 5bf1 563c 11c9 72bb ce9e 013d 1585 683d
000001f0: 3afe 413d 2714 bc3c 633d a7bc 43a8 b73c
00000200: 46eb 4f3d 3c89 553d 1d8f 42bb 33bf 2dbd
00000210: 6af1 3e3d bfb3 463d cc1e e83c d5b2 5e3d
00000220: 3989 6a3c a102 0fbc 5e43 0ebd 65d1 b8bc
00000230: 6d4d b1bc 79fa 543b e934 acbc 7987 fabb
00000240: b786 37bd 4b4f 1f3c 13bc e63c 8413 3fbd
00000250: ae13 863c f806 0f3c eda6 483a 0da4 43bd
00000260: d5b1 833b 21e7 883a c0a1 143a 0b68 573d
00000270: acef 483d 4d20 2b3d ad81 f63c 49f0 273d
00000280: 6090 5bbd 4505 48bc 2d48 223d 2602 24bd
00000290: 1b8e f73c fa2a f83c f0c6 02bd 8b61 833c
000002a0: 43ad 713d a5d9 1d3d aadb 61bd a785 e139
000002b0: 0b28 a5bb 7be9 ffbb 98b0 4e3d f06f 3fbd
000002c0: 6220 643d adb8 2cbc 09c3 bd3c 7e2e 353c
000002d0: 3ff4 773c 65fb 88bd 1e1e 1f3c b17f 713a
000002e0: 3ed3 133d f444 003d dc06 32bc c1fc 19bd
000002f0: 7212 cabc a8d7 9d3c 1067 8dbc 215e 0e3d
00000300: 0eb8 113d d68a c33c bb84 9e3b 2c2d 2bbd
00000310: 28dd 2ebc da05 293c 5f9a e13b 361c 91bd
00000320: 5dc6 0abc c04e b9ba c9fa 1939 faa9 0fbd
00000330: b56e 38bd 1c4c d93c b9a1 f13b 9954 6bbc
00000340: c6d3 11bd fd1e a1bc 24f0 1d3d c1e2 f23c
00000350: 9e7a f0bc 9088 243d e495 06bd e243 8b3c
00000360: cecf 01bd 99f4 483d 29d4 173d 0314 3d3a
00000370: db8b de3c f89a 98bc 4e86 81bc 301c 843c
00000380: 8b62 debb 885b 9ebc 2d3a 883d 2977 5d3c
00000390: d21b 26bb 2bd6 c13c 0963 9b3c 029e 083d
000003a0: 6ea0 c2bc 380c 8dbc 01f6 b43c f95f 083d
000003b0: f1e3 a83c 50db 75bd 459a b3bc 5d2e 853c
000003c0: fd7c bf3a aaeb 433d 929c 383d 147d eabb
000003d0: 4c13 72bb 4f4d 19bc 6e13 6ab9 ee22 f5bc
000003e0: 3c0d 6fbb 54e3 90bc 19f6 a7bc f7d2 8b3c
000003f0: ac00 583c d5b2 76bc 9bad f03c 7e1e dd3b
0.06982316 0.05548783 -0.06261073 0.012862285 -0.0272217 -0.02608053 -0.053438425 -0.03162023
0.04972852 0.0010980361 0.0053470726 0.05217422 0.054139882 0.05775372 -0.028718151 0.016674746
-0.07400891 0.012038698 0.0078468425 0.042301543 0.0057544527 -0.0018535225 -0.014059875 0.008837047
-0.011704928 -0.050910976 0.026336938 -0.029940683 -0.06112723 -0.008740006 0.012994146 0.07113318
-0.0043629683 0.014925544 0.019092383 0.034577686 0.034401625 0.044129804 -0.019776076 0.060003325
0.04692766 -0.038857497 -0.039362222 -0.0033729929 0.058739718 0.020185934 -0.021804797 0.052799392
-0.021458726 -0.027773587 0.0055345553 0.012374011 0.04036811 0.023734083 0.016256833 -0.03260514
-0.02457209 -0.034341644 0.013057668 -0.03806205 -0.03442578 0.010521517 0.002373483 0.038830817
0.029561462 0.040676326 -0.03297845 -0.011816495 -0.002006318 -0.014262134 -0.030123368 0.013288655
0.04074735 0.057341225 -0.005907588 0.031490248 0.030335294 -0.03694811 0.025169903 -0.000649543
-0.040128976 -0.006817129 -0.0534619 -0.05477728 0.004716991 -0.0027074146 0.0075927977 0.04455039
0.016779918 -0.08727717 0.008524504 -0.06611286 -0.03850606 0.046409868 -0.031139607 -0.009739955
-0.061760325 0.037047483 -0.028653583 0.022018999 -0.006188957 0.0002460048 0.03579091 0.038121246
-0.0032107485 -0.020446962 0.009114962 0.073576786 0.057002496 -0.009223251 0.006967353 -0.06852873
0.010136746 -0.05764783 0.0017626386 -0.0001413277 0.04442489 -0.05415113 -0.010420071 -0.032295067
0.013119067 -0.0037046114 0.03164559 0.056767542 0.04736159 0.022958828 -0.020415014 0.0224191
0.050761484 0.05213283 -0.0029687353 -0.04241867 0.04661695 0.048511263 0.028334998 0.054369766
0.014314943 -0.008728654 -0.034732215 -0.022560785 -0.021643365 0.0032497926 -0.021021323 -0.007645544
-0.04480621 0.009723495 0.028165853 -0.04664947 0.016366806 0.008729689 0.00076542684 -0.047763873
0.004019002 0.0010444858 0.00056698546 0.052589457 0.049056694 0.04177885 0.030091131 0.04100064
-0.053604484 -0.012208288 0.039619613 -0.04004111 0.030219128 0.03029393 -0.031928003 0.016037723
0.059003126 0.03853764 -0.05514113 0.00043014923 -0.005040174 -0.0078098155 0.05046138 -0.04673761
0.055694945 -0.010542077 0.02316429 0.011058448 0.015133916 -0.06688575 0.00971177 0.0009212448
0.036090128 0.03131576 -0.010865893 -0.03759456 -0.024666999 0.019267872 -0.017261058 0.034757737
0.03557592 0.023869913 0.0048376 -0.041791126 -0.010672845 0.0103163365 0.0068848575 -0.07085459
-0.008470145 -0.0014137849 0.00014684642 -0.03507421 -0.045027453 0.02652555 0.007374015 -0.014363431
-0.035602354 -0.019668097 0.038559094 0.02964914 -0.029355343 0.0401693 -0.03285779 0.017000142
-0.03169232 0.04906139 0.037067566 0.000721276 0.027166298 -0.018628582 -0.015811112 0.016126722
-0.0067866496 -0.019330755 0.06651721 0.0135171795 -0.0025346172 0.023661694 0.018968122 0.033353813
-0.02375814 -0.01721774 0.02208996 0.03329465 0.020616503 -0.060023606 -0.021924147 0.01625746
0.0014609393 0.04783217 0.045071192 -0.0071560238 -0.0036937771 -0.009356811 -0.00022323217 -0.029923882
-0.0036476394 -0.017686523 -0.02050309 0.01706837 0.013183754 -0.015057285 0.029379657 0.0067480197

action_model._continuous_distribution.mu.bias f4 [2]
00000000: 0ce8 6a3c 50a5 97bb
0.014337551 -0.004627861

onnx::Div_51 f4 [18]
00000000: 0f81 0b3e c825 fa3d 1bd2 fe3d 15c1 1b3f
00000010: 36d0 283f e1b4 283e 1dbb 713a e4ff 423e
00000020: fb8c 253e d73c be3d deb1 063e f312 8f3d
00000030: 16ac 283e 1dbb 713a b402 433e 618a 253e
00000040: ca40 b83d 743f 263f
0.1362345 0.122142375 0.12442418 0.60841495 0.65942705 0.1647525 0.00092213025 0.19042927
0.16167061 0.09288948 0.13153788 0.06986036 0.16471896 0.00092213025 0.19044 0.16166069
0.089967325 0.6494057
